ImagePython/cifar_net.pth (torch, 310435 bytes, 12 tensors)

conv1.weight f4 [6, 3, 5, 5]
0.0133146085 0.15179376 0.06883424 -0.15827183 -0.07644185 -0.06447017 -0.041934237 -0.11786901
-0.20624365 -0.09465131 -0.1319219 -0.018836519 0.026030427 0.059811257 0.026050095 0.03418444
-0.11151168 0.09172619 0.19807929 0.025433997 0.12654823 0.020705078 0.20656727 0.06843647
0.04248863 0.004042011 -0.137574 -0.12044293 -0.24476498 -0.04399632 -0.08395095 -0.11168167
-0.15809977 -0.21069422 -0.083820716 0.04193249 -0.17930293 -0.14124529 0.102375366 0.1540944
-0.12165487 0.059299543 -0.036881845 0.18992704 0.1255264 -0.09243421 0.14146836 0.13823372
0.17343342 0.12673852 0.006392526 0.02599899 -0.118259564 -0.09766353 0.033968486 0.034016445
-0.100068346 -0.20109162 -0.16779621 -0.023497183 -0.07985281 -0.057639223 -0.074480206 0.12562191
0.09954756 -0.022258252 0.009290801 0.0070546493 0.037010644 0.13100943 -0.024219133 0.1823097
0.23593444 0.2395777 0.2267305 0.13171719 0.0067255194 -0.029951913 0.2110579 0.22832055
-0.019108135 0.0054068016 -0.03147807 0.16494864 0.1774356 -0.104757465 -0.06750876 -0.14257897
0.25701717 0.29525235 0.015943522 -0.19320932 -0.103796996 0.16478804 0.1373187 -0.06680035
-0.2628891 -0.11327105 0.037516017 0.09306508 -0.049226996 -0.16517752 -0.02475734 0.11911122
0.1351024 -0.20865785 -0.2622288 -0.20790513 0.050721984 0.1567919 -0.14099519 -0.20195557
-0.23652786 0.013804557 0.06411002 -0.17817938 -0.16419369 -0.037103288 -0.0027177713 0.18686193
-0.098696485 -0.22456838 -0.04854273 0.008264631 0.13984373 -0.17577367 -0.17685021 -0.14575873
0.14538448 0.035223488 -0.015790978 -0.24636497 -0.058763403 0.18767099 0.18521774 -0.11453225
-0.0734468 0.013909941 0.10510738 0.23779559 0.06908932 -0.22107992 -0.07187539 0.19173221
0.34552982 -0.047835417 -0.047545016 -0.021278882 0.14563228 0.17398998 -0.039603252 -0.070405915
-0.052893933 -0.014428402 0.008199191 -0.027471758 -0.21903598 -0.096531756 -0.23952329 -0.26117018
-0.1704522 -0.06522719 -0.13242674 -0.06887462 -0.087133534 -0.14881402 -0.07990765 -0.10267809
-0.013025841 -0.08605205 -0.16650485 -0.15055417 -0.17788117 -0.11827821 -0.20033522 -0.03767926
0.14637522 0.076855026 -0.015588286 -0.024320226 -0.046210777 -0.09253859 0.06827219 -0.001854556
0.034607075 0.12368516 0.0061677108 0.07134144 -0.016185764 0.084698856 0.069486216 0.12401974
0.13665628 0.02998608 0.041591357 0.04104065 0.024484007 0.0018492939 -0.053224634 -0.100730754
0.19186491 0.019600794 0.15148261 0.13669986 -0.0055092815 0.11470206 0.17194408 0.027801896
-0.07414802 0.045253932 0.021661226 0.054177403 0.016190846 0.20084211 0.14290601 0.025394052
0.22035435 0.09024836 0.08740754 0.04347271 0.1562002 0.09859324 0.13571677 0.032405093
0.109864004 0.10908363 0.2339003 0.2661388 0.39369142 0.3209402 -0.0554329 0.17081876
0.093136854 0.08633645 0.11483683 -0.21017784 -0.1789103 -0.27601683 -0.24738845 -0.25585386
-0.08108143 -0.18198842 -0.067613915 0.00796974 -0.043662447 0.04640104 0.050334916 0.065162115
0.18897866 0.058005106 0.01733273 0.26660916 0.20409648 0.16324823 0.09233624 0.05450138
00000000: 8425 5a3c d36f 1b3e f7f8 8c3d 0312 22be
00000010: 8b8d 9cbd f008 84bd 3cc3 2bbd 4f65 f1bd
00000020: 8931 53be 8cd8 c1bd 8916 07be 0b4f 9abc
00000030: c33d d53c a6fc 743d 0267 d53c fc04 0c3d
00000040: 3c60 e4bd f1da bb3d 4cd5 4a3e f55a d03c
00000050: dc95 013e b29d a93c 5f86 533e 6c28 8c3d
00000060: 8f08 2e3d d972 843b 33e0 0cbe c8aa f6bd
00000070: aca3 7abe 7c35 34bd 7aee abbd 5cb9 e4bd
00000080: e8e4 21be 3ac0 57be 32aa abbd 67c1 2b3d
00000090: 309b 37be 9ba2 10be 2daa d13d ecca 1d3e
000000a0: 3026 f9bd 14e4 723d 6b11 17bd 3c7c 423e
000000b0: fe89 003e 264e bdbd 15dd 103e 248d 0d3e
000000c0: 8898 313e bec7 013e 6578 d13b d5fb d43c
000000d0: 1232 f2bd d103 c8bd 8a22 0b3d d454 0b3d
000000e0: a2f0 ccbd f6ea 4dbe c5d2 2bbe 2a7d c0bc
000000f0: df89 a3bd 1b17 6cbd 1489 98bd 08a3 003e
00000100: 97df cb3d f056 b6bc 7238 183c b02a e73b
00000110: 7998 173d 5627 063e 3467 c6bc 65af 3a3e
00000120: cc98 713e db53 753e 0a2c 683e dfe0 063e
00000130: bf61 dc3b b75d f5bc 901f 583e ddcc 693e
00000140: aa88 9cbc 8a2b b13b 26ef 00bd 4ce8 283e
00000150: aeb1 353e 158b d6bd 0842 8abd 3900 12be
00000160: c197 833e 512b 973e fd9b 823c aad8 45be
00000170: 8593 d4bd 32be 283e 469d 0c3e 9fce 88bd
00000180: 6699 86be a7fa e7bd 65aa 193d e898 be3d
00000190: 3fa2 49bd 4c24 29be e8cf cabc 95f0 f33d
000001a0: 4958 0a3e 67aa 55be da42 86be 15e5 54be
000001b0: dbc1 4f3d 0e8e 203e 0b61 10be 71cd 4ebe
000001c0: 5c34 72be 822c 623c 1d4c 833d a874 36be
000001d0: 6422 28be 9ef9 17bd a31c 32bb bc58 3f3e
000001e0: 6221 cabd 41f5 65be bed4 46bd 6068 073c
000001f0: 3233 0f3e 03fe 33be 3918 35be c741 15be
00000200: abdf 143e 8146 103d 155c 81bc 1947 7cbe
00000210: e5b1 70bd d32c 403e b8a9 3d3e e28f eabd
00000220: 476b 96bd 85e6 633c 8a42 d73d b080 733e
00000230: b47e 8d3d c662 62be 6833 93bd 7355 443e
00000240: 49e9 b03e 12ef 43bd 90be 42bd 0d51 aebc
00000250: a120 153e 6e2a 323e 0537 22bd fa30 90bd
00000260: 4fa7 58bd 1b65 6cbc e655 063c 740c e1bc
00000270: f84a 60be 71b2 c5bd 9845 75be 19b8 85be
00000280: 068b 2ebe d595 85bd e09a 07be 230e 8dbd
00000290: 1173 b2bd b462 18be 9fa6 a3bd e448 d2bd
000002a0: 566a 55bc 0f3c b0bd 3f80 2abe df2a 1abe
000002b0: 7b26 36be d93b f2bd ad24 4dbe 9155 1abd
000002c0: 63e3 153e 2b66 9d3d 0366 7fbc 363b c7bc
000002d0: 8347 3dbd df84 bdbd 4ad2 8b3d 9314 f3ba
000002e0: 26c0 0d3d a54e fd3d 821a ca3b 761b 923d
000002f0: 0298 84bc 9876 ad3d ca4e 8e3d 10fe fd3d
00000300: a0ef 0b3e 5ea5 f53c b35b 2a3d 3e1a 283d
00000310: af92 c83c 0264 f23a 1302 5abd ed4b cebd
00000320: 3c78 443e d891 a03c 421e 1b3e 0cfb 0b3e
00000330: 3487 b4bb eae8 ea3d 1c12 303e cdc0 e33c
00000340: ebda 97bd 305c 393d e272 b13c 20e9 5d3d
00000350: aaa2 843c 8ea9 4d3e f455 123e 3007 d03c
00000360: 92a4 613e 22d4 b83d b902 b33d 7110 323d
00000370: f2f2 1f3e 41eb c93d 56f9 0a3e 34bb 043d
00000380: 6100 e13d 3d67 df3d 8f83 6f3e 5843 883e
00000390: ec91 c93e 4652 a43e 9c0d 63bd 1deb 2e3e
000003a0: 89be be3d 2ad1 b03d 922f eb3d dc38 57be
000003b0: 4334 37be 1452 8dbe 6653 7dbe 47ff 82be
000003c0: 050e a6bd 2c5b 3abe 2a79 8abd 8393 023c
000003d0: 65d7 32bd 040f 3e3d fc2b 4e3d b773 853d
000003e0: 9f83 413e c396 6d3d 5ffd 8d3c ff80 883e
000003f0: abfe 503e 8b2a 273e c81a bd3d d73c 5f3d

conv1.bias f4 [6]
0.33923474 0.01919366 0.4556118 -0.15937501 0.49188915 0.09933738
00000000: 2db0 ad3e 063c 9d3c f345 e93e 3433 23be
00000010: e5d8 fb3e 6571 cb3d

conv2.weight f4 [16, 6, 5, 5]
-0.10285428 -0.015992187 0.054558717 0.022033663 0.096143104 0.07429507 0.05055105 0.011918009
0.0053034043 -0.016252637 0.04612067 0.05547149 0.02330163 -0.02136648 0.15285441 0.007069411
-0.009157572 0.10802455 0.13136737 0.15572098 -0.07686334 -0.02914099 0.08248236 0.035018545
0.053070124 0.05983015 0.053625856 0.087560385 -0.011036187 -0.048329506 0.04150116 0.019474352
-0.018314127 -0.106134705 -0.044707146 0.013661971 -0.035685647 -0.13561837 0.008156123 -0.008960352
-0.090001754 -0.0020153364 -0.05319153 -0.060395278 -0.092376545 -0.10399042 -0.1617897 -0.06376557
-0.13735236 -0.038132526 0.15381832 0.1576515 0.09672407 0.07703809 0.040012207 -0.010827138
0.0155456355 0.06444647 0.0509194 0.054400273 0.016058998 0.08242255 0.06979376 0.04112415
-0.011059896 0.09666413 0.06601242 0.079705596 -0.027130734 0.06280557 -0.01084088 -0.021215025
0.009242327 0.08745089 -0.008055952 0.0027923628 0.07409749 0.108918786 0.03248624 0.04826261
0.09512044 0.074415445 0.12712333 -0.0009894237 -0.009140636 0.04781633 0.064850226 -0.009360722
0.15813363 0.13478205 0.10840801 0.1995506 0.058604576 0.07440919 0.0050291196 0.12818757
0.12734683 -0.0047974056 -0.018477762 0.10184527 0.03020379 -0.0022951327 -0.059685938 -0.054670084
0.073971264 -0.07362751 0.046443872 -0.06816866 0.096951306 -0.015109115 -0.070284106 -0.04948981
0.0640793 0.07278803 0.094781384 -0.09792331 0.0029069197 0.072207615 0.059249662 -0.037558977
-0.083916225 -0.0759596 -0.124456055 -0.03369217 -0.056166757 -0.065016024 0.06306591 -0.008439979
0.006404945 -0.041157685 0.0052908487 -0.06524074 0.05404974 0.030387549 0.035279356 -0.03149339
0.03831881 -0.027999057 -0.027027927 -0.051160276 0.083769344 -0.056973703 0.024064757 0.011350069
-0.07429884 -0.03513208 0.045825604 0.01576869 -0.07076786 -0.031015204 0.21072336 0.19554603
0.11779791 0.18184485 0.07473465 0.12997183 0.20644824 0.12350137 0.035529323 0.04156954
0.017753346 -0.051116664 -0.09202312 0.035796173 0.07225514 0.042448096 -0.0146632595 -0.107889704
-0.089233324 -0.091723636 -0.08424834 -0.024424642 -0.035425503 -0.015019673 -0.039140694 0.017914165
0.010250537 -0.035927948 -0.07041838 0.00052464136 0.062207755 0.08412576 0.034994796 0.0448753
0.040094715 0.089702226 -0.0023479746 -0.04952833 0.024622215 0.011194727 0.09633258 0.017116807
-0.026837183 0.091596656 -0.019171422 -0.04013081 -0.067139596 -0.12678741 0.075982764 0.01333935
0.10227861 -0.00529272 2.8455644e-05 0.02898074 -0.005729633 -0.038995896 0.05897772 0.03795805
-0.063652456 -0.0034221145 0.08520842 -0.015562435 -0.014605252 -0.08359796 -0.05015338 0.07683175
0.034597393 -0.0061045764 -0.056543928 -0.053697776 0.035999984 0.026670823 -0.09856922 0.010024033
-0.078854375 -0.01408919 0.09790858 0.0519018 -0.037058942 -0.00059877813 -0.030140452 -0.033209294
-0.03615832 0.051167656 -0.059232436 -0.049706604 0.059756078 0.05118811 0.011829836 -0.07229646
-0.018228523 -0.070006974 -0.08753399 -0.03337354 0.012752794 0.061537173 -0.0565311 0.003227273
-0.032705653 0.0024339869 0.033167716 0.016824845 -0.016307771 -0.0674353 0.021531533 0.046142835
00000000: 44a5 d2bd 0c02 83bc f678 5f3d f17f b43c
00000010: ade6 c43d 0328 983d 9e0e 4f3d c143 433c
00000020: 2ec8 ad3b 4024 85bc 07e9 3c3d 1336 633d
00000030: 0fe3 be3c c208 afbc de85 1c3e 85a6 e73b
00000040: a409 16bc fa3b dd3d 2b85 063e 5275 1f3e
00000050: 876a 9dbd 16b9 eebc 83ec a83d 9b6f 0f3d
00000060: 0f60 593d 7610 753d c9a6 5b3d dc52 b33d
00000070: 20d1 34bc 29f5 45bd 1ffd 293d ad88 9f3c
00000080: 8207 96bc 275d d9bd d71e 37bd 76d6 5f3c
00000090: 1d2b 12bd 8bdf 0abe 42a1 053c 71ce 12bc
000000a0: d752 b8bd bc13 04bb 5ddf 59bd 0a61 77bd
000000b0: ea2f bdbd eef8 d4bd 33ac 25be 8697 82bd
000000c0: 19a6 0cbe da30 1cbd 8d82 1d3e 656f 213e
000000d0: 4517 c63d 25c6 9d3d d7e3 233d 4f64 31bc
000000e0: 1fb3 7e3c 83fc 833d dc90 503d d2d2 5e3d
000000f0: 298e 833c 27cd a83d 08f0 8e3d cc71 283d
00000100: 9134 35bc d8f7 c53d 8531 873d b03c a33d
00000110: 4641 debc 35a0 803d f29d 31bc 22cb adbc
00000120: 216d 173c 7419 b33d 1dfd 03bc 1300 373b
00000130: 6dc0 973d d010 df3d 4b10 053d 04af 453d
00000140: 81ce c23d 2067 983d 9e2c 023e 8daf 81ba
00000150: 9bc2 15bc 0edb 433d 32d0 843d b75d 19bc
00000160: c8ed 213e 4e04 0a3e 0505 de3d fe56 4c3e
00000170: 5a0b 703d d863 983d 50cb a43b 9a43 033e
00000180: 3567 023e 8e33 9dbb ad5e 97bc 4194 d03d
00000190: f06d f73c f069 16bb 3e79 74bd bded 5fbd
000001a0: 3f7e 973d 05ca 96bd ee3b 3e3d 039c 8bbd
000001b0: 688e c63d 398c 77bc 1df1 8fbd d4b5 4abd
000001c0: 023c 833d e411 953d be1c c23d 048c c8bd
000001d0: 0582 3e3b 96e1 933d c6af 723d 71d7 19bd
000001e0: 45dc abbd b590 9bbd d1e2 febd cd00 0abd
000001f0: 1d0f 66bd 1f27 85bd b328 813d d647 0abc
00000200: 93e0 d13b f694 28bd db5e ad3b f09c 85bd
00000210: 4363 5d3d 4fef f83c 1681 103d 37ff 00bd
00000220: 2ff4 1c3d 475e e5bc ac69 ddbc 708d 51bd
00000230: 438f ab3d 425d 69bd 7423 c53c a4f5 393c
00000240: fd29 98bd a8e6 0fbd a1b3 3b3d 572d 813c
00000250: bdee 90bd 9913 febc ddc7 573e 383d 483e
00000260: 0840 f13d 8935 3a3e 7b0e 993d 5617 053e
00000270: 2b67 533e 49ee fc3d 3287 113d d244 2a3d
00000280: 776f 913c b55f 51bd 9e76 bcbd 029f 123d
00000290: 81fa 933d 0ede 2d3d 2b3e 70bc 47f5 dcbd
000002a0: f6bf b6bd 9ad9 bbbd 658a acbd 3016 c8bc
000002b0: 551a 11bd 1315 76bc fe51 20bd bac0 923c
000002c0: def1 273c 2f29 13bd 8337 90bd 1688 093a
000002d0: 8fcd 7e3d 204a ac3d b456 0f3d 2acf 373d
000002e0: 5b3a 243d cdb5 b73d 7ae0 19bb 38de 4abd
000002f0: 87b4 c93c 176a 373c 044a c53d 8c38 8c3c
00000300: a7d9 dbbc 0797 bb3d 630d 9dbc 3460 24bd
00000310: 7c80 89bd 8fd4 01be da9c 9b3d 4a8d 5a3c
00000320: 7377 d13d 8e6e adbb 08b4 ee37 0469 ed3c
00000330: a5bf bbbb 29ba 1fbd 9f92 713d e679 1b3d
00000340: 385c 82bd 8e45 60bb c181 ae3d 95f9 7ebc
00000350: de4a 6fbc 6835 abbd a16d 4dbd f759 9d3d
00000360: ffb5 0d3d e608 c8bb 9b9a 67bd 33f2 5bbd
00000370: b874 133d c57c da3c a9de c9bd d73b 243c
00000380: 677e a1bd 59d6 66bc 4b84 c83d fb96 543d
00000390: 1ecb 17bd 52f7 1cba 1ce9 f6bc 7806 08bd
000003a0: bf1a 14bd 2d95 513d b69d 72bd 2799 4bbd
000003b0: cac2 743d a0aa 513d eed1 413c 2b10 94bd
000003c0: fc53 95bc d15f 8fbd 0545 b3bd b1b2 08bd
000003d0: 18f1 503c 670e 7c3d 288d 67bd a880 533b
000003e0: 5df6 05bd 8683 1f3b dfda 073d 42d4 893c
000003f0: e097 85bc 851b 8abd e662 b03c 4500 3d3d

conv2.bias f4 [16]
-0.043089155 0.007953822 -0.30607525 0.15685004 0.02097477 -0.18358596 -0.034029115 -0.09663181
0.00805849 0.058343265 0.17116356 0.19326283 0.001174434 -0.09164181 -0.05323204 0.12557803
00000000: 417e 30bd bf50 023c e5b5 9cbe 4c9d 203e
00000010: 48d3 ab3c f5fd 3bbe 1d62 0bbd e6e6 c5bd
00000020: c207 043c 59f9 6e3d 8045 2f3e b1e6 453e
00000030: 77ef 993a b4ae bbbd d709 5abd 8797 003e

conv3.weight f4 [64, 9, 5, 5]
0.066543624 -0.017448816 -0.025471458 0.033481784 0.047244385 -0.027564486 0.014044969 0.022351703
-0.06250367 -0.005202699 0.05480196 0.059987396 0.044081792 -0.024405243 -0.035296053 -0.015178117
-0.02368517 -0.04379832 0.040260483 0.040848527 -0.057899352 0.041110646 -0.029436622 -0.0126821045
-0.030509902 0.0075986627 0.009405781 0.04336789 0.008179927 0.03874975 0.01384403 0.0030207636
0.027440526 -0.009618641 0.06114043 -0.025895907 0.06586072 -0.020733556 -0.053478476 -0.03416829
-0.04195491 -0.041660897 -0.064695016 -0.007280636 0.027247192 -0.05418734 -0.05411324 0.030695163
0.04305239 0.0023073119 -0.039371166 -0.0062401537 0.061241202 -0.012080972 0.036566522 -0.04579572
-0.028394653 0.0026319586 0.06539328 -0.029655308 -0.055409115 -0.047244057 0.0071384194 -0.056432594
-0.021641344 0.034003157 0.04727154 -0.06636088 0.049859352 -0.0027793013 -0.016939586 0.05301773
0.0076632267 0.03146369 0.0049630087 0.02157782 0.010260415 0.056043644 0.011031112 0.021441683
-0.042630166 -0.053590696 0.065163575 -0.04047383 0.058453135 -0.04584144 0.017470846 0.009230273
0.0061543784 0.031157639 0.051233772 -0.0398551 0.060584016 -0.029433912 0.05738012 0.011263721
0.046128552 -0.016076192 0.009605376 -0.03298499 -0.0003982385 0.0071117007 -0.034813263 0.022566304
0.03369754 -0.06236407 0.03086226 0.0030572813 0.036526967 -0.060960256 0.037214544 0.056179248
0.0134704355 0.0007596493 -0.031485718 -0.06377788 0.03565383 -0.0566982 0.06611561 -0.056393016
0.06073448 0.045935124 -0.051033776 0.007614359 -0.030275036 -0.011204156 -0.044926837 -0.040331047
0.06462433 -0.02495843 0.029209616 -0.0432422 -0.002501615 0.0572385 0.04063019 0.0052600466
-0.058252018 0.0028219144 -0.065675914 -0.033422846 -0.016950067 -0.02246357 -0.010690952 -0.045123953
0.047055103 -0.061738536 0.041077927 -0.030551873 -0.035890866 -0.06024237 0.0027136644 0.038647328
0.021302082 -0.016382132 0.030265372 0.05617743 0.06266542 -0.0074799065 0.038122926 -0.011208797
-0.00755291 0.057180997 0.0598931 -0.02656986 0.04758243 -0.059819043 -0.04617754 0.04950631
0.008822791 0.015476275 -0.024733076 0.04776293 -0.0073832516 -0.037998457 0.043804474 0.02124854
0.046568222 -0.0343306 -0.009456103 0.045309704 0.019447757 0.057634205 0.033271745 0.029476333
-0.0067796474 -0.05103679 -0.062495396 0.010336066 -0.06195479 0.044786036 -0.009097171 0.050211407
-0.039940607 -0.0149269905 0.061984774 0.01839448 -0.027331116 -0.0053544524 -0.036233887 0.029980613
0.06341097 0.04341729 0.031227026 -0.022783685 -0.049886905 -0.0149798 -0.022571271 -0.032371275
0.05245219 0.034700744 0.04431286 0.048928797 0.012067756 -0.031702448 -0.04548511 0.040108286
0.022621451 0.02988752 0.013525955 -0.04101097 -0.04827633 0.021052592 0.03494372 0.019111212
-0.06656799 -0.00890255 -0.01360972 -0.028641488 0.024646856 0.054392595 0.048050214 -0.041077204
0.010264803 -0.059440807 0.06185225 -0.009353281 0.020221552 0.022722604 0.022598196 0.06403931
0.033445653 0.02531589 0.042248912 -0.022772584 -0.012266255 -0.059157412 -0.011431997 -0.051719103
0.014473169 0.035738867 -0.035001993 -0.05701465 0.047195733 -0.02305402 0.047261026 -0.028459987
00000000: 0648 883d d2f0 8ebc 85a9 d0bc 3224 093d
00000010: 5483 413d ebce e1bc df1c 663c eb1a b73c
00000020: ed01 80bd 677b aabb 0578 603d 58b5 753d
00000030: 1c8f 343d 81ed c7bc 9892 10bd a3ad 78bc
00000040: 6707 c2bc de65 33bd 2de8 243d c950 273d
00000050: df27 6dbd a363 283d 1225 f1bc 9ac8 4fbc
00000060: e7ef f9bc 34fe f83b b41a 1a3c 87a2 313d
00000070: 1a05 063c 0fb8 1e3d 12d2 623c 01f8 453b
00000080: f4ca e03c 8197 1dbc 636e 7a3d a723 d4bc
00000090: fce1 863d 6bd9 a9bc 3f0c 5bbd 0df4 0bbd
000000a0: e9d8 2bbd 9ea4 2abd d27e 84bd 6792 eebb
000000b0: 8135 df3c 8bf3 5dbd d8a5 5dbd 6c74 fb3c
000000c0: b457 303d 4536 173b a943 21bd 347a ccbb
000000d0: 0ed8 7a3d 45ef 45bc c7c6 153d 4b94 3bbd
000000e0: e79b e8bc f07c 2c3b e9ec 853d b0ef f2bc
000000f0: abf4 62bd fc82 41bd 67e9 e93b dd25 67bd
00000100: 3049 b1bc e546 0b3d cd9f 413d 37e8 87bd
00000110: 5239 4c3d f024 36bb e3c4 8abc 1f29 593d
00000120: ce1b fb3b 12e0 003d bca0 a23b f8c3 b03c
00000130: 4d1b 283c 058e 653d d6bb 343c 78a6 af3c
00000140: f89c 2ebd eb81 5bbd 7b74 853d e3c7 25bd
00000150: 8e6c 6f3d 3cc4 3bbd 051f 8f3c 923a 173c
00000160: abaa c93b 4e3e ff3c 81da 513d 1a3f 23bd
00000170: f226 783d 631f f1bc 6b07 6b3d 788b 383c
00000180: 4bf1 3c3d 38b2 83bc de5f 1d3c 451b 07bd
00000190: abca d0b9 4509 e93b 5a98 0ebd f8dc b83c
000001a0: 6f06 0a3d 7871 7fbd dad2 fc3c ab5c 483b
000001b0: 4d9d 153d 76b1 79bd 476e 183d 361c 663d
000001c0: 1ab3 5c3c 3423 473a 2bf7 00bd fa9d 82bd
000001d0: c009 123d 5f3c 68bd 9f67 873d 5dfc 66bd
000001e0: b8c4 783d 7826 3c3d cb08 51bd df81 f93b
000001f0: 5a03 f8bc a391 37bc 3405 38bd 2b32 25bd
00000200: c359 843d 9f75 ccbc 0149 ef3c bc1e 31bd
00000210: 23f2 23bb eb72 6a3d d86b 263d 785c ac3b
00000220: ab99 6ebd deef 383b 1881 86bd 65e6 08bd
00000230: deda 8abc 8505 b8bc 1a29 2fbc e5d3 38bd
00000240: dabc 403d 8ce1 7cbd 5441 283d ec47 fabc
00000250: 4d02 13bd b4c0 76bd bcd7 313b a94c 1e3d
00000260: b481 ae3c d233 86bc 16ef f73c 4e1a 663d
00000270: ba56 803d 011a f5bb c926 1c3d 1aa5 37bc
00000280: 677e f7bb 9f36 6a3d 7852 753d 09a9 d9bc
00000290: cbe5 423d d004 75bd a924 3dbd 21c7 4a3d
000002a0: 788d 103c 3490 7d3c 059d cabc 10a3 433d
000002b0: 34ef f1bb 45a4 1bbd 526c 333d 6b11 ae3c
000002c0: 52be 3e3d 3e9e 0cbd c5ed 1abc ab96 393d
000002d0: e750 9f3c d811 6c3d f447 083d 5a78 f13c
000002e0: ce27 debb f40b 51bd 2cfb 7fbd 9a58 293c
000002f0: 4ec4 7dbd 9071 373d 4d0c 15bc 7aaa 4d3d
00000300: c398 23bd 5690 74bc bfe3 7d3d 05b0 963c
00000310: 81e5 dfbc 6774 afbb fc69 14bd e799 f53c
00000320: 9cdd 813d 54d6 313d d2cf ff3c daa4 babc
00000330: 3656 4cbd d66d 75bc 63e7 b8bc be97 04bd
00000340: 1cd8 563d 5e22 0e3d 6781 353d 9069 483d
00000350: d6b7 453c 6dda 01bd 984e 3abd 9648 243d
00000360: 9f50 b93c acd6 f43c f89b 5d3c 1efb 27bd
00000370: 67bd 45bd 7c76 ac3c 2521 0f3d 1e8f 9c3c
00000380: cc54 88bd 00dc 11bc 4efb 5ebc 8ea1 eabc
00000390: 34e8 c93c c5ca 5e3d 4dd0 443d 9240 28bd
000003a0: b42d 283c 3478 73bd c958 7d3d 813e 19bc
000003b0: aba7 a53c c124 ba3c da1f b93c 0b27 833d
000003c0: 4ffe 083d 4563 cf3c 320d 2d3d 928d babc
000003d0: 67f8 48bc 0b4f 72bd 454d 3bbc 69d7 53bd
000003e0: df20 6d3c eb62 123d 405e 0fbd 3288 69bd
000003f0: 5050 413d c9db bcbc c794 413d eb24 e9bc

conv3.bias f4 [64]
0.020890523 0.0031974 0.06503911 0.001563573 0.061043598 -0.011011109 0.016079545 -0.03905837
-0.027125137 -0.0017708462 -0.025629347 -0.0016118607 0.00040994489 -0.010081395 -0.029247325 -0.033488046
-0.022673672 -0.033457473 -0.017590992 0.060668353 0.03587712 -0.01651295 -0.03637609 0.026832527
-0.043047104 0.008943328 -0.066198416 -0.05090221 0.0530127 -0.046280738 -0.06595999 -0.007009952
0.00906059 -0.046746057 -0.056152727 0.059127875 -0.0038741115 0.032403026 -0.011953529 -0.021824377
0.037290256 -0.049681373 0.03219537 -0.0031498512 0.061495394 0.02381549 -0.05507127 -0.065385334
-0.013026644 -0.012052569 0.0066813473 -0.0059531853 -0.0025970382 -0.0351189 0.034305662 0.047308892
-0.049580354 0.050793786 0.010933146 -0.005829136 -0.0030901672 -0.06451251 -0.0056624417 0.033748373
00000000: 9a22 ab3c 788b 513b 3a33 853d cef0 cc3a
00000010: da08 7a3d f067 34bc 40b9 833c abfb 1fbd
00000020: 8935 debc bd1b e8ba a3f4 d1bc 1245 d3ba
00000030: dfed d639 6f2c 25bc 1698 efbc c32a 09bd
00000040: 23be b9bc b40a 09bd fc1a 90bc 617f 783d
00000050: e3f3 123d 2b46 87bc 18ff 14bd e3cf db3c
00000060: 2952 30bd 0987 123c 0993 87bd d67e 50bd
00000070: d823 593d df90 3dbd 0816 87bd bdb3 e5bb
00000080: de72 143c cb78 3fbd 6700 66bd 1230 723d
00000090: cee4 7dbb 09b9 043d bcd8 43bc 09c9 b2bc
000000a0: abbd 183d b27e 4bbd 4bdf 033d bc6d 4ebb
000000b0: 98e2 7b3d b418 c33c 6992 61bd bfe8 85bd
000000c0: b46d 55bc 2378 45bc 34ef da3b f012 c3bb
000000d0: 1233 2abb d6d8 0fbd 1884 0c3d f8c6 413d
000000e0: c514 4bbd 250d 503d f020 333c 5602 bfbb
000000f0: 6784 4abb 231f 84bd 018c b9bb bc3b 0a3d

fc1.weight f4 [120, 400]
0.0018374545 -0.039280657 -0.045616847 -0.040939398 0.048076138 0.04375828 -0.046020687 0.036552984
-0.032733724 -0.029738188 0.018198293 -0.034755576 -0.039606273 0.002891425 0.0043727406 -0.046852615
0.02879223 0.01582163 -0.04289885 0.025945185 0.012994622 -0.01877611 0.04211153 -0.029219506
0.02136373 0.03611524 0.0024194936 -0.0267831 -0.012736422 -0.017338226 -0.040309902 -0.007365161
0.010956391 0.017787766 -0.0011484197 -0.04854806 0.017901586 0.0043956726 -0.016922342 -0.024840822
0.00701419 0.03325707 0.032103233 0.030821867 -0.008331246 -0.031848464 0.038285807 -0.03581618
-0.043354176 0.012188711 0.0035558022 0.031931814 -0.008836932 -0.025548529 -0.021267438 0.016844453
0.048535828 -0.044425745 -0.044986296 0.013956791 0.041889086 0.0031614394 0.04999038 0.032988947
0.04207301 -0.0283631 0.023142597 0.019235594 -0.03774849 0.0074133817 -0.043206565 -0.045752946
0.015744558 0.00030807176 -0.021716632 0.03303964 0.013818974 -0.03389644 -0.018363964 -0.009126754
-0.027795002 -0.012625052 -0.0050345236 0.04686646 -0.0017144752 -0.017127937 -0.04302892 -0.006822885
-0.006837751 0.018939832 0.0033089733 -0.011266912 0.0038576396 -0.04193195 0.016206013 -0.0041216826
0.021526065 0.027972134 -0.016552389 -0.03361977 0.0015654603 -0.034043174 0.003230282 0.017968358
-0.0052572116 -0.008249734 0.021458585 -0.01943527 -0.022178475 0.022907762 0.021162147 -0.016537236
-0.043678775 -0.041410025 -0.02899265 0.027855007 0.006833248 0.008041976 0.045127973 -0.00092697254
-0.033447918 -0.033548586 -0.016846491 0.04489951 0.004418636 0.013631246 -0.01609804 -0.024285914
-0.005640004 -0.029974153 -0.036852602 0.00020183218 -0.028840369 -0.022382058 -0.011863697 0.019973662
-0.001692553 0.03952689 -0.025886321 -0.03479064 -0.023560634 -0.027372563 -0.014466129 -0.009153131
-0.032160163 -0.011812012 -0.0352225 -0.041094586 -0.0100072315 -0.031152442 0.022385312 -0.0115739405
0.006839009 0.03982602 0.015097287 0.013350683 0.0406179 -0.0435938 -0.013955123 -0.04091682
-0.0067903344 -0.04759688 -0.018154928 -0.0090644285 -0.04319728 0.047706828 -0.029547159 0.0037718588
0.028829593 0.013695035 0.04423207 -0.022964347 -0.026022471 0.0128634 -0.026688017 0.014764586
-0.018119702 0.006446511 0.0061787986 0.0037094904 0.049479004 0.030147739 0.041425563 0.010007211
0.008240774 0.041353684 0.047108937 -0.030918315 -0.030052202 0.023438739 0.0047211787 0.020021336
-0.040801544 0.044162426 -0.027145442 -0.017730081 -0.048015695 0.04778707 -0.041312274 0.023647564
-0.044512276 -0.040962514 0.01624801 0.041449875 -0.0002943435 0.0056003495 -0.001840348 -0.016711824
0.005740302 -0.009059404 0.01006481 -8.656654e-05 0.0011193005 -0.015957657 0.004829559 0.030571712
-0.043776672 0.02989937 -0.028948873 -0.018817604 0.01494528 0.021411644 0.043662623 -0.033382982
0.006737078 -0.010209988 -0.0060329386 0.006538214 0.02500767 -0.0046089455 -0.014748394 0.016034137
-0.01563176 -0.04213257 0.008914308 0.010335014 0.020305127 0.039964236 -0.019331919 0.043815304
-0.039447565 0.008290541 0.027287826 0.031675067 0.038140908 -0.038857087 -0.030409912 -0.03308282
0.04851023 -0.025315356 -0.045666758 -0.04499379 -0.029929066 0.043137643 -0.04529222 -0.029652555
00000000: bed6 f03a c1e4 20bd bbd8 3abd 12b0 27bd
00000010: 7ceb 443d e23b 333d 3080 3cbd 95b8 153d
00000020: cc13 06bd 809d f3bc 9614 953c dd5b 0ebd
00000030: 303a 22bd 107e 3d3b 3549 8f3b 87e8 3fbd
00000040: afdd eb3c 5d9c 813c b4b6 2fbd ff8a d43c
00000050: 65e7 543c 5bd0 99bc 247d 2c3d bf5d efbc
00000060: fd02 af3c 93ed 133d 5e90 1e3b 3b68 dbbc
00000070: 6dac 50bc e508 8ebc ff1b 25bd 7357 f1bb
00000080: 6f82 333c a6b7 913c 9286 96ba 55da 46bd
00000090: 59a6 923c 9309 903b b9a0 8abc fb7e cbbc
000000a0: 4ad7 e53b 9138 083d ae7e 033d 247e fc3c
000000b0: c77f 08bc 8973 02bd 94d1 1c3d fdb3 12bd
000000c0: 2694 31bd 29b3 473c 7608 693b efca 023d
000000d0: c7c8 10bc 264b d1bc 0d39 aebc 61fd 893c
000000e0: 81cd 463d c5f7 35bd 8d43 38bd 06ab 643c
000000f0: e493 2b3d 2730 4f3b b6c2 4c3d 6b1f 073d
00000100: c054 2c3d bb59 e8bc 8b95 bd3c f793 9d3c
00000110: 299e 1abd f4eb f23b 5ef9 30bd 7167 3bbd
00000120: bbfa 803c b184 a139 14e7 b1bc 9354 073d
00000130: fa68 623c fed6 0abd 0670 96bc 6188 15bc
00000140: 58b2 e3bc 4ed9 4ebc a5f8 a4bb 0cf7 3f3d
00000150: 3eb8 e0ba e34f 8cbc 183f 30bd 8292 dfbb
00000160: 360f e0bb b527 9b3c 5cdb 583b db98 38bc
00000170: 74d0 7c3b d6c0 2bbd 79c2 843c 2e0f 87bb
00000180: 6e57 b03c d125 e53c e098 87bc e2b4 09bd
00000190: 2230 cd3a db70 0bbd 24b3 533b 6132 933c
000001a0: b044 acbb e429 07bc eac9 af3c b736 9fbc
000001b0: a2af b5bc 0fa9 bb3c 3d5c ad3c 1979 87bc
000001c0: 84e8 32bd 8f9d 29bd fe81 edbc 2f30 e43c
000001d0: 70e9 df3b 7ec2 033c 1cd8 383d 1300 73ba
000001e0: af00 09bd 3e6a 09bd a701 8abc 8ce8 373d
000001f0: 35ca 903b 9755 5f3c 09e0 83bc 41f3 c6bc
00000200: c8cf b8bb 5b8c f5bc c1f2 16bd eaa2 5339
00000210: a342 ecbc 945a b7bc f45f 42bc ce9f a33c
00000220: a8d8 ddba f3e6 213d 8d0f d4bc a180 0ebd
00000230: 3b02 c1bc 6d3c e0bc 5803 6dbc 04f7 15bc
00000240: 60ba 03bd 2b87 41bc 7845 10bd cc52 28bd
00000250: 5ff5 23bc 6833 ffbc 6761 b73c a0a0 3dbc
00000260: c419 e03b 9c20 233d 9c5a 773c d3bc 5a3c
00000270: f55e 263d 6a8f 32bd 07a4 64bc 6598 27bd
00000280: 7481 debb f2f4 42bd a5b9 94bc f882 14bc
00000290: a2ef 30bd 3c68 433d e20c f2bc 4a31 773b
000002a0: 0a2c ec3c 2461 603c b02c 353d ba1f bcbc
000002b0: 142d d5bc 03c1 523c d4a0 dabc 2ae7 713c
000002c0: c56f 94bc 413d d33b 8577 ca3b ec1a 733b
000002d0: 7faa 4a3d 64f8 f63c daad 293d 49f5 233c
000002e0: 5004 073c 7b62 293d 4df5 403d 6848 fdbc
000002f0: 0930 f6bc 9902 c03c 1eb4 9a3b c903 a43c
00000300: 851f 27bd a9e3 343d 1e60 debc ad3e 91bc
00000310: 1bac 44bd 60bc 433d 0f37 29bd 89b8 c13c
00000320: 8152 36bd 4fc8 27bd 8c1a 853c 58c7 293d
00000330: 1e52 9ab9 2383 b73b d537 f1ba 3ce7 88bc
00000340: 2519 bc3b e56d 14bc dfe6 243c 0f8b b5b8
00000350: 7eb5 923a a2b9 82bc 4741 9e3b 8771 fa3c
00000360: 2b4f 33bd 86ef f43c 3026 edbc 6027 9abc
00000370: 0cdd 743c 7967 af3c 94d7 323d 98bc 08bd
00000380: b5c2 dc3b cb47 27bc f5af c5bb 843e d63b
00000390: e3dc cc3c a306 97bb 3fa3 71bc 065a 833c
000003a0: 2d0e 80bc 3493 2cbd 510d 123c 3154 293c
000003b0: f056 a63c 8ab1 233d f95d 9ebc ad77 333d
000003c0: c593 21bd 0dd5 073c b88a df3c b7bd 013d
000003d0: a439 1c3d 9c28 1fbd 351e f9bc da81 07bd
000003e0: aab2 463d 2662 cfbc 110d 3bbd 694b 38bd
000003f0: cd2d f5bc 19b1 303d 5684 39bd eae9 f2bc

fc1.bias f4 [120]
-0.031352233 -0.0152779 0.10709701 -0.010690658 0.010635345 0.0028677098 0.011841035 0.031059198
-0.001055169 -0.0041850084 0.01075569 -0.01024128 -0.0012774105 -0.013879511 0.033202447 0.049689107
-0.030554451 -0.030115016 0.047845516 0.01124417 -0.03673018 0.071585655 -0.042361505 0.0025036037
0.024621097 0.017007878 0.0127083985 0.053243477 -0.034064785 -0.065241106 0.08030113 0.07194258
0.075554706 0.03757224 -0.006408961 -0.011144455 0.02114206 -0.021655248 -0.080506064 0.022848373
0.04111191 -0.046922076 -0.017837318 0.0109822685 -0.050691247 -0.006505573 -0.03247554 0.04783749
0.024237432 -0.023326563 -0.0396409 -0.04489666 -0.06997551 0.004256251 -0.033075396 -0.026805714
0.08367553 0.008802516 -0.0478038 0.06300464 -0.04114854 0.03657508 -0.022709005 -0.07389661
0.11169889 0.02824266 0.057460558 -0.07916347 0.046933353 -0.018592183 0.03133372 0.0666037
-0.010612086 -0.0052540344 -0.020277927 -0.07799278 0.06309823 0.03986657 0.066878185 -0.052669946
0.017034966 -0.058162525 0.0071866647 0.009863265 0.011003482 -0.104253314 0.022697438 -0.019249946
0.034444075 -0.0013996301 -0.028477015 -0.008142157 0.0012747654 -0.0976014 0.046511184 -0.06617655
-0.013205331 -0.0030568503 0.031248366 -0.046623863 0.042977583 0.00577168 -0.07248529 0.036918215
0.017790945 0.0042394153 -0.0071424423 0.09345965 0.080770634 -0.0495414 -0.043386493 0.10875376
-0.0025982664 0.09147038 -0.023368467 0.005399913 0.08442913 0.0137901725 0.017471025 -0.011830824
00000000: 336b 00bd 2850 7abc ad55 db3d df27 2fbc
00000010: df3f 2e3c 30f0 3b3b e700 423c dc6f fe3c
00000020: 994d 8aba 6522 89bb a238 303c 0bcb 27bc
00000030: c96e a7ba e366 63bc 4aff 073d ce86 4b3d
00000040: 544d fabc c4b3 f6bc a9f9 433d 7839 383c
00000050: 6372 16bd 809b 923d 4283 2dbd 8013 243b
00000060: 2fb2 c93c 1b54 8b3c e336 503c d515 5a3d
00000070: 8487 0bbd 219d 85bd eb74 a43d a256 933d
00000080: 6dbc 9a3d 59e5 193d 4302 d2bb 3b97 36bc
00000090: 1d32 ad3c 5966 b1bc 5de0 a4bd 832c bb3c
000000a0: f664 283d 5d31 40bd 911f 92bc f9ee 333c
000000b0: a0a1 4fbd b42c d5bb 1205 05bd 3ef1 433d
000000c0: 948d c63c 5917 bfbc 7f5e 22bd 8fe5 37bd
000000d0: 524f 8fbd 0578 8b3b 117a 07bd a897 dbbc
000000e0: 145e ab3d 6e38 103c ebcd 43bd 9408 813d
000000f0: 5f8b 28bd c0cf 153d 3c08 babc 1b57 97bd
00000100: 63c2 e43d 275d e73c c35b 6b3d 7520 a2bd
00000110: 303d 403d a24e 98bc c957 003d 8567 883d
00000120: 51de 2dbc 092a acbb e51d a6bc aeba 9fbd
00000130: a539 813d 214b 233d 6ef7 883d 71bc 57bd
00000140: ea8c 8b3c d43b 6ebd 1d7e eb3b 8899 213c
00000150: f347 343c c382 d5bd faef b93c 10b2 9dbc
00000160: 3b15 0d3d cb73 b7ba a148 e9bc af66 05bc
00000170: 0716 a73a 3ee3 c7bd 8382 3e3d 9287 87bd
00000180: 2c5b 58bc 7055 48bb 93fc ff3c aaf8 3ebd
00000190: 4309 303d 5c20 bd3b 2b73 94bd 8e37 173d
000001a0: 51be 913c cbea 8a3b 260b eabb c667 bf3d
000001b0: 136b a53d eceb 4abd 09b6 31bd 4bba de3d
000001c0: ad47 2abb d354 bb3d 3a6f bfbc c1f1 b03b
000001d0: 2ee9 ac3d 2df0 613c 651f 8f3c 13d6 41bc

fc2.weight f4 [84, 120]
-0.029976375 -0.013922613 0.041615825 0.07938259 -0.015902093 0.021752384 -0.071363576 0.056018304
0.00046672943 0.06748557 -0.04844405 -0.03445182 -0.04066595 -0.08740287 -0.0853965 0.0543018
0.03633844 -0.017511414 -0.059712965 0.08631533 -0.067855895 0.020300616 -0.08948816 -0.07674154
0.0715464 0.07856272 0.0809264 -0.045497082 0.05967031 0.068685 0.012904515 -0.03733334
0.060604304 -0.041155994 -0.005292859 -0.016161237 -0.017917586 -0.03779763 -0.081946455 -0.068006665
0.026025021 0.056010664 -0.050897606 -0.039170872 -0.07571723 -0.041754454 0.073020995 0.07155122
0.049865983 -0.089810096 -0.021041177 0.059738655 0.03371698 -0.001448359 -0.029048212 0.08575278
0.052153114 -0.05547246 0.026356703 -0.04338099 0.06756554 0.059912376 0.0087350225 -0.017490285
-0.07978276 -0.09076058 0.01341245 0.041621048 -0.038570058 0.052519843 0.013391535 -0.06830824
0.08974742 0.011212059 -0.08080633 -0.044965543 0.019823348 0.05494361 0.077071995 -0.08112992
0.06376082 0.048331298 -0.03562205 0.0015243022 -0.03593015 -0.06459046 -0.07374885 0.06982734
-0.0150419455 -0.077192724 0.07122153 -0.07984711 -0.08221518 0.036730453 0.03608008 -0.020709617
0.03567324 -0.04850728 -0.028480845 0.01298788 -0.05505183 0.009034969 -0.08188495 0.079739906
-0.03183986 0.017185226 0.026274081 0.044926565 -0.08238873 0.08482166 -0.05095842 -0.057382476
0.06312436 0.014782826 -0.013412812 -0.0715115 0.021179961 0.020532774 -0.022734411 0.006013435
-0.0010457633 -0.02740461 -0.07376936 0.05866617 0.024031544 -0.004291765 -0.0054325345 -0.040174637
-0.005210313 -0.019275952 0.038470432 0.050120633 0.008294694 0.06825154 -0.069605604 0.004990887
-0.06074622 0.049050607 0.06984438 -0.0093356585 -0.030984811 0.07758955 -0.027418813 0.027545184
0.017923713 0.07306931 -0.08226664 -0.050858334 -0.013279826 -0.0765158 0.012391635 -0.07087755
-0.048383374 -0.0834693 0.004120926 -0.017252967 0.011919668 -0.034175213 0.07531948 0.08711046
-0.013079215 0.06280728 -0.051912326 0.03373909 0.054002088 0.025717825 -0.08978604 0.004179976
0.01474306 0.0048951907 0.054242693 -0.021383397 -0.062093377 0.010663707 0.010419896 -0.004351022
0.010695592 0.03686424 0.038040772 -0.019172724 -0.051005024 -0.02312855 -0.08679671 -0.055387296
-0.05074537 -0.08387482 0.04475033 0.028309092 -0.053983536 -0.05442958 0.0070281485 0.04178722
-0.060686816 -0.020220598 0.025872478 0.046848983 -0.01784503 -0.051989898 0.055734355 -0.020257004
-0.0447203 0.069503926 -0.074939 0.028291507 -0.08235648 -0.026902605 -0.018769084 0.047461398
0.05512435 0.03486506 -0.06406671 -0.05394115 -0.0796478 -0.008961998 0.07625514 -0.001485845
-0.009316913 0.015966086 -0.035556093 0.07521539 0.05827914 -0.04987113 -0.024303319 -0.017039003
-0.043237925 0.0100238705 -0.007966888 0.052145198 -0.048590727 -0.012951866 0.056324974 -0.06806773
0.015045413 -0.032394104 -0.026564267 0.0514618 0.0030939193 0.034225684 -0.035106823 -0.03623248
0.013998649 0.09474341 -0.1254489 -0.06438695 -0.07176814 0.07275512 0.014723002 0.063738406
-0.09225728 0.052879132 -0.06934021 -0.03399257 -0.061607227 -0.10213553 -0.0034376574 0.014075238
00000000: 0491 f5bc ac1b 64bc 5b75 2a3d 5793 a23d
00000010: 1b45 82bc 0e32 b23c 1127 92bd 7373 653d
00000020: 5db3 f439 e035 8a3d 456d 46bd 5a1d 0dbd
00000030: 5791 26bd 4700 b3bd 5ce4 aebd 906b 5e3d
00000040: 9ed7 143d 1974 8fbc 9595 74bd 17c6 b03d
00000050: 08f8 8abd 7a4d a63c 9245 b7bd ab2a 9dbd
00000060: eb86 923d 7ee5 a03d bebc a53d 265b 3abd
00000070: db68 743d b9aa 8c3d 756d 533c d8ea 18bd
00000080: 383c 783d 3093 28bd b86f adbb 9264 84bc
00000090: e7c7 92bc b0d1 1abd 8bd3 a7bd 1447 8bbd
000000a0: 6d32 d53c 706b 653d 027a 50bd a371 20bd
000000b0: a311 9bbd b806 2bbd 088c 953d 7289 923d
000000c0: 4640 4c3d 5bee b7bd 8c5e acbc 85b0 743d
000000d0: d11a 0a3d ddd6 bdba 84f6 edbc 279f af3d
000000e0: 819e 553d 1737 63bd 03ea d73c 44b0 31bd
000000f0: cd5f 8a3d ae66 753d 571d 0f3c c947 8fbc
00000100: 2565 a3bd afe0 b9bd e5bf 5b3c d57a 2a3d
00000110: a3fb 1dbd 0c1f 573d 2b68 5b3c 31e5 8bbd
00000120: 7fcd b73d c9b2 373c ca7d a5bd ca2d 38bd
00000130: 9364 a23c 8d0c 613d ecd7 9d3d 7227 a6bd
00000140: 0895 823d 0af7 453d 6de8 11bd 18cb c73a
00000150: 7e2b 13bd 0148 84bd a309 97bd a301 8f3d
00000160: 7e72 76bc 3817 9ebd 98dc 913d e286 a3bd
00000170: 6f60 a8bd ac72 163d b5c8 133d 37a7 a9bc
00000180: 1a1e 123d 92af 46bd a950 e9bc 1ecb 543c
00000190: 077e 61bd 6807 143c 4cb3 a7bd ad4e a33d
000001a0: 836a 02bd 08c8 8c3c be3c d73c eb04 383d
000001b0: 6cbb a8bd fab6 ad3d c7b9 50bd e309 6bbd
000001c0: 5847 813d ab33 723c 69c1 5bbc 9f74 92bd
000001d0: 9981 ad3c 5934 a83c 843d babc 590c c53b
000001e0: fe11 89ba a27f e0bc 6414 97bd f04b 703d
000001f0: cddd c43c efa1 8cbb 6703 b2bb 298e 24bd
00000200: 46bb aabb 9ae8 9dbc 2c93 1d3d 4b4b 4d3d
00000210: 78e6 073c 77c7 8b3d 628d 8ebd 988a a33b
00000220: 07d1 78bd 4ae9 483d 920a 8f3d 97f4 18bc
00000230: dcd3 fdbc 45e7 9e3d 6b9d e0bc 70a6 e13c
00000240: c0d4 923c 5da5 953d 6a7b a8bd d450 50bd
00000250: a193 59bc 51b4 9cbd 4906 4b3c 4028 91bd
00000260: a52d 46bd f4f1 aabd d508 873b 1856 8dbc
00000270: b64a 433c 4ffb 0bbd 1941 9a3d f866 b23d
00000280: 344a 56bc 1aa1 803d 05a2 54bd 0032 0a3d
00000290: 4b31 5d3d 30ae d23c bee1 b7bd 2ef8 883b
000002a0: e08c 713c d667 a03b 962d 5e3d 3c2c afbc
000002b0: a055 7ebd d4b6 2e3c 36b8 2a3c 0593 8ebb
000002c0: 903c 2f3c f5fe 163d a4d0 1b3d 1e10 9dbc
000002d0: a5ea 50bd 1678 bdbc 79c2 b1bd cadd 62bd
000002e0: 61da 4fbd 90c6 abbd 1f4c 373d 78e8 e73c
000002f0: d71d 5dbd 8df1 5ebd 624c e63b 1329 2b3d
00000300: bd92 78bd aba5 a5bc 85f2 d33c b8e4 3f3d
00000310: be2f 92bc 5cf3 54bd b549 643d 04f2 a5bc
00000320: a22c 37bd 1358 8e3d 9e79 99bd 97c3 e73c
00000330: 84aa a8bd da62 dcbc 9fc1 99bc e266 423d
00000340: 12ca 613d aace 0e3d 6835 83bd 65f1 5cbd
00000350: 631e a3bd 58d5 12bc a82b 9c3d afc0 c2ba
00000360: f7a5 18bc 4fcb 823c 44a3 11bd 870a 9a3d
00000370: 1cb6 6e3d ac45 4cbd c117 c7bc 6195 8bbc
00000380: 401a 31bd 293b 243c 8d87 02bc 3496 553d
00000390: 1207 47bd 1034 54bc 04b5 663d 1867 8bbd
000003a0: 0981 763c aeaf 04bd 4e9d d9bc 9cc9 523d
000003b0: 5ac3 4a3b 3b30 0c3d 2ccc 0fbd 8268 14bd
000003c0: 975a 653c d508 c23d ad75 00be 4edd 83bd
000003d0: 2dfb 92bd a300 953d bf38 713c 4889 823d
000003e0: 63f1 bcbd ca97 583d 3d02 8ebd cb3b 0bbd
000003f0: dc57 7cbd 6f2c d1bd 524a 61bb d49b 663c

fc2.bias f4 [84]
-0.005657953 -0.058601487 -0.03594702 -0.05145576 0.084398806 -0.014473146 0.05140138 0.006640161
-0.007026501 -0.0070109284 0.028009064 0.16159767 0.12621184 0.021225976 0.08425917 0.08032813
0.18023175 -0.049372315 -0.0323086 0.056340043 -0.030144839 -0.033876687 0.040537965 -0.028705316
0.014978524 -0.039991282 0.20309918 0.041401476 0.016579274 -0.10617638 0.25849566 -0.07097642
0.18928897 0.026921881 0.06514758 0.03163793 -0.1974272 0.19108635 0.051752012 0.10028016
-0.0034411654 0.14388782 -0.0026062753 0.094000205 0.011664964 -0.0603761 -0.008003501 0.13346532
0.106859356 0.000113760965 0.06781983 -0.044545315 0.095727056 -0.072197184 -0.075092025 -0.07416892
-0.027150149 -0.01672567 0.072828904 -0.060819108 -0.07407087 -0.11027107 -0.09816227 -0.13799736
-0.104284436 -0.04703934 0.061243363 -0.07068084 0.0422191 0.20509571 0.2460328 -0.04642488
-0.0004971033 -0.027493779 -0.13882272 0.13265759 -0.0022160914 -0.1251368 -0.14305992 0.08808805
0.13432775 0.04471338 -0.079244524 0.08376994
00000000: 5a66 b9bb 1d08 70bd 2f3d 13bd 46c3 52bd
00000010: 48d9 ac3d c620 6dbc 418a 523d b595 d93b
00000020: 903e e6bb eebb e5bb 4473 e53c dc79 253e
00000030: ad3d 013e 19e2 ad3c 1290 ac3d 1383 a43d
00000040: ac8e 383e a03a 4abd 0656 04bd d1c4 663d
00000050: 4ff2 f6bc 48c2 0abd 230b 263d 6927 ebbc
00000060: 7c68 753c e6cd 23bd 3bf9 4f3e 9894 293d
00000070: 42d1 873c 0073 d9bd 8b59 843e 165c 91bd
00000080: f8d4 413e 478b dc3c 186c 853d c696 013d
00000090: 5b2a 4abe 24ac 433e ebf9 533d af5f cd3d
000000a0: 2d85 61bb 5457 133e 0bce 2abb 2e83 c03d
000000b0: 681e 3f3c ee4c 77bd 1e21 03bc 22ab 083e
000000c0: 14d9 da3d f492 ee38 1fe5 8a3d 2675 36bd
000000d0: 8c0c c43d 1edc 93bd d9c9 99bd e0e5 97bd
000000e0: fd69 debc 4604 89bc 5227 953d 751d 79bd
000000f0: 78b2 97bd ccd5 e1bd 4d09 c9bd 2e4f 0dbe
00000100: 1493 d5bd 53ac 40bd 52da 7a3d 1ec1 90bd
00000110: efed 2c3d 9c04 523e 06f0 7b3e 0428 3ebd
00000120: 0a50 02ba a23a e1bc 8b27 0ebe 64d7 073e
00000130: d83b 11bb dc23 00be 4d7e 12be 8267 b43d
00000140: 378d 093e 6125 373d f44a a2bd 938f ab3d

fc3.weight f4 [10, 84]
-0.07392789 0.07926258 -0.07639174 0.014686377 -0.18465914 -0.07010882 -0.13462253 0.09788646
0.054367382 -0.022294277 -0.08294827 -0.02917592 -0.10603881 0.050164007 0.16136105 -0.053676087
0.09134689 0.0014302457 0.14565499 0.18971553 0.08318648 -0.16221303 0.041072052 0.124655366
0.1600264 -0.05317702 -0.05153812 -0.060938533 0.08991526 -0.105288066 0.0066359215 0.0028288784
0.09750329 -0.06324547 0.19185053 -0.17748995 -0.05446571 0.23712562 -0.080886215 -0.12569985
-0.1665594 -0.059725046 -0.029662779 -0.008871817 -0.13777749 -0.0063418294 0.1122791 0.014037526
0.09139263 0.070480466 0.046885114 -0.10005622 0.08414028 0.09677523 -0.031355772 0.051078364
0.16696635 0.19091333 0.045605525 -0.013584683 0.002846942 -0.110704735 -0.12153269 -0.05448237
0.041380096 -0.072951026 0.059371535 0.03250006 -0.0154568665 0.3253997 0.31744528 -0.10102322
-0.012680793 -0.083438 -0.12193938 0.035548247 -0.07183453 -0.03533683 -0.12804697 0.10487425
0.19144608 -0.17582557 -0.08566107 -0.053169597 0.07728804 -0.0076248827 0.009382147 0.07468885
-0.017640544 -0.03177161 -0.06286297 -0.026545852 0.045114357 -0.05334052 -0.0786446 -0.19086275
-0.0042689787 -0.019001309 0.090794735 -0.0516914 -0.19648403 -0.061160047 -0.12828128 0.26427135
0.043810636 -0.04390162 -0.09236634 -0.058305383 -0.022344235 0.25938216 -0.25670713 -0.15334879
0.1341898 -0.12885775 -0.30031237 -0.07945057 -0.07247357 -0.1393843 0.048933912 -0.03645823
0.1382211 -0.045828067 0.024822919 -0.16528317 0.18829489 -0.14612693 0.1608542 -0.16443028
-0.12410237 -0.07094575 -0.053376794 -0.08404741 -0.1761692 -0.025514882 -0.017106695 -0.1438602
-0.12952092 0.0505936 -0.020166436 -0.016032772 -0.12876904 -0.049424443 -0.04399053 0.04961237
-0.08654677 -0.04409526 -0.14164846 0.24172541 0.24985039 -0.0074388417 0.23461205 -0.02960375
0.14077276 -0.18796174 -0.14885509 -0.025895007 -0.124841906 0.108711414 0.13445932 -0.1320283
0.07621265 -0.015842255 0.16370644 0.13100404 -0.07337118 -0.1151833 0.062306546 0.0833191
0.07659001 0.057010632 -0.054030307 0.03010457 0.14563175 -0.07429687 -0.09703399 -0.008782244
-0.04428934 -0.111322396 -0.024776611 0.13086312 0.13269596 0.19118965 -0.06101443 -0.09641778
0.081086814 -0.0131015405 0.017133074 0.09869722 -0.028271878 0.1429665 -0.0331083 0.2393677
0.095993966 -0.23125046 0.1560652 -0.009331568 0.012201174 -0.020587392 0.13844594 -0.009716782
0.14362514 0.093719766 0.063025944 -0.1268538 -0.17861508 0.13349724 -0.003235263 0.18098955
-0.014446235 -0.04020576 -0.041597657 0.021612726 -0.013001941 -0.033315912 -0.08906749 -0.12303854
0.10198172 -0.061564613 -0.044799957 -0.08890984 0.042614363 -0.12364795 -0.10695415 0.01994977
0.06557747 -0.19950458 -0.06941035 -0.042552102 0.09490205 -0.051511794 0.07018481 -0.08041309
-0.07675167 0.03920993 -0.04444833 0.11725554 0.06145581 -0.116460636 0.16829732 0.09905584
0.034471683 -0.045520835 0.11163538 0.046723187 0.07676425 0.16136096 -0.1870134 -0.08332356
0.0037719863 -0.07568959 -0.064689144 0.18615036 0.04756008 -0.051665563 0.16821854 -0.026545083
00000000: 8167 97bd 6b54 a23d 4673 9cbd 219f 703c
00000010: 4917 3dbe 3795 8fbd 7dda 09be b278 c83d
00000020: 55b0 5e3d 7da2 b6bc c8e0 a9bd 5702 efbc
00000030: e02a d9bd c678 4d3d d53b 253e 75db 5bbd
00000040: 1414 bb3d 1577 bb3a 9526 153e ca44 423e
00000050: ac5d aa3d 2c1b 26be 2b3b 283d 504b ff3d
00000060: f6dd 233e 26d0 59bd a319 53bd af9a 79bd
00000070: 7e25 b83d 45a1 d7bd 2572 d93b b464 393b
00000080: ceaf c73d d786 81bd 7774 443e edbf 35be
00000090: 7017 5fbd 0fd1 723e aca7 a5bd 76b7 00be
000000a0: 8c8e 2abe 40a2 74bd 5bff f2bc 195b 11bc
000000b0: 8b15 0dbe 1fcf cfbb 96f2 e53d a7fd 653c
000000c0: 0f2c bb3d 1058 903d 9b0a 403d 47ea ccbd
000000d0: bd51 ac3d 1732 c63d e96e 00bd 8c37 513d
000000e0: 3af9 2a3e c97e 433e dccc 3a3d 4a92 5ebc
000000f0: c393 3a3b 2ab9 e2bd 22e6 f8bd e828 5fbd
00000100: 2d7e 293d 5967 95bd 912f 733d c81e 053d
00000110: cc3e 7dbc ca9a a63e 3088 a23e 43e5 cebd
00000120: 1ac3 4fbc 8be1 aabd 5bbb f9bd 0a9b 113d
00000130: fb1d 93bd 5abd 10bd bf1e 03be 50c8 d63d
00000140: 710a 443e 9e0b 34be 126f afbd 5dc8 59bd
00000150: 3149 9e3d 27da f9bb 94b7 193c 78f6 983d
00000160: e782 90bc f322 02bd 4dbe 80bd b076 d9bc
00000170: d5c9 383d 977b 5abd 6c10 a1bd 8671 43be
00000180: cae2 8bbb a2a8 9bbc 97f2 b93d 5dba 53bd
00000190: 1c33 49be f582 7abd 2b5c 03be 934e 873e
000001a0: c872 333d 2fd2 33bd 902a bdbd a0d1 6ebd
000001b0: 420b b7bc bdcd 843e 1e6f 83be 7707 1dbe
000001c0: 0d69 093e 49f3 03be 8bc2 99be fbb6 a2bd
000001d0: 066d 94bd c2ba 0ebe ed6e 483d 3a55 15bd
000001e0: d589 0d3e 36b6 3bbd 6f59 cb3c fe3f 29be
000001f0: 60d0 403e 4ca2 15be f7b6 243e 6960 28be
00000200: 6229 febd 014c 91bd a0a1 5abd 0c21 acbd
00000210: b365 34be 9604 d1bc 5723 8cbc 1750 13be
00000220: 22a1 04be 3c3b 4f3d 1534 a5bc 2957 83bc
00000230: 08dc 03be 4971 4abd 6a2f 34bd 5736 4b3d
00000240: 6f3f b1bd 3b9d 34bd 4b0c 11be de86 773e
00000250: c8d8 7f3e 87c1 f3bb 243e 703e 9083 f2bc
00000260: bc26 103e 0b79 40be 786d 18be c421 d4bc
00000270: 1dad ffbd 17a4 de3d b4af 093e 6d32 07be
00000280: 6115 9c3d 9ec7 81bc a9a2 273e ec25 063e
00000290: a143 96bd 39e5 ebbd 2635 7f3d 34a3 aa3d
000002a0: 39db 9c3d fb83 693d e24e 5dbd dc9d f63c
000002b0: 7d20 153e f528 98bd c2b9 c6bd 67e3 0fbc
000002c0: bd68 35bd fffc e3bd 52f8 cabc fb00 063e
000002d0: 73e1 073e 38c7 433e 44ea 79bd af76 c5bd
000002e0: d810 a63d d8a7 56bc a95a 8c3c c521 ca3d
000002f0: 6d9a e7bc cf65 123e 929c 07bd ce1c 753e
00000300: 7c98 c43d eccc 6cbe 8ecf 1f3e 6fe3 18bc
00000310: 6fe7 473c e4a6 a8bc c6c4 0d3e 2333 1fbc
00000320: 7812 133e 26f0 bf3d bf13 813d f6e5 01be
00000330: dfe6 36be 80b3 083e b506 54bb 5355 393e
00000340: e7af 6cbc ccae 24bd 4e62 2abd 2c0d b13c
00000350: 1806 55bc 4476 08bd 0469 b6bd a1fb fbbd
00000360: cbdb d03d 2d2b 7cbd 2980 37bd 5d16 b6bd
00000370: 668c 2e3d 233b fdbd c70a dbbd b36d a33c
00000380: 7b4d 863d ee4a 4cbe 0327 8ebd 1d4b 2ebd
00000390: 025c c23d 08fe 52bd 0ebd 8f3d 9eaf a4bd
000003a0: fb2f 9dbd 979a 203d 740f 36bd ac23 f03d
000003b0: 16b9 7b3d ea82 eebd 2256 2c3e cadd ca3d
000003c0: 2e32 0d3d 0e74 3abd 17a1 e43d d060 3f3d
000003d0: 9336 9d3d cf3b 253e 7180 3fbe 8ba5 aabd
000003e0: 6e33 773b 2503 9bbd be7b 84bd 339e 3e3e
000003f0: 5cce 423d 459f 53bd 7b41 2c3e 1375 d9bc

fc3.bias f4 [10]
0.23093125 -0.35294223 0.15259671 -0.012903505 0.10073677 0.11233802 -0.15882774 -0.3018789
0.41341427 -0.31699747
00000000: 3e79 6c3e d8b4 b4be 5042 1c3e 3969 53bc
00000010: 144f ce3d 7a11 e63d bda3 22be df8f 9abe
00000020: 09ab d33e 7e4d a2be
