ImagePython/cifar_net.pth (torch, 252005 bytes, 10 tensors)

conv1.weight f4 [6, 3, 5, 5]
0.16083492 0.21758576 0.28769362 0.017791096 0.08085555 0.32116508 0.2628145 0.20115082
0.2022954 0.10192093 0.16362211 0.20843576 0.155149 0.13399927 0.17011972 -0.04336717
-0.059330925 -0.1417483 0.0016986802 -0.053751804 -0.20920128 -0.28948855 -0.29288387 -0.2669271
-0.20652165 0.035650715 -0.12845738 -0.02541636 -0.0071848384 -0.08306572 -0.010849094 0.002168644
0.117197625 0.08187226 0.0601796 0.0025788948 0.19676696 0.22629185 0.15212205 0.11627498
-0.13943219 -0.19845417 -0.0673223 -0.19217715 -0.14999124 -0.29091388 -0.32619497 -0.3195377
-0.28523523 -0.18878908 0.015649118 -0.034574512 -0.15209337 0.007931323 -0.2002302 0.080671005
-0.03409594 0.084700234 -0.046989262 0.11278672 0.11324432 0.14678001 0.15269598 0.086145416
0.11173588 0.011175938 0.0036947683 -0.03932069 -0.06607819 -0.058212534 -0.01895751 -0.007471636
-0.14003931 -0.035184436 -0.0037023919 0.1817015 0.1800896 0.13128203 0.09845952 -0.11412993
0.050885804 0.18830363 0.06620809 0.059380177 0.07791002 0.008047551 0.0057853824 0.16639319
0.004244937 -0.009718212 0.08628034 0.011690962 0.018346822 0.026660316 0.07389867 0.11397773
0.043003906 0.02062303 0.0350398 0.13326922 0.057930082 -0.10166355 -0.11531429 -0.06474042
-0.071138166 0.06929505 0.016425066 -0.04866501 -0.061681595 -0.04755117 0.056407366 0.08656938
-0.000926964 0.0052584126 0.045733895 -0.048356965 -0.049242254 0.08811124 0.022838615 -0.1299566
0.017518122 -0.08359792 -0.03057123 0.013380491 0.038775682 -0.01417963 0.065514304 -0.02604251
-0.060422827 -0.014219693 0.025588704 0.11685009 0.0963874 -0.030655257 -0.12413176 0.05640722
0.066533685 0.07927606 0.12156653 0.018530386 -0.039726097 0.1107257 0.14568904 0.13300927
-0.09706147 -0.022977557 0.122497395 0.07445904 0.063452154 -0.03660224 0.072524324 -0.105110325
-0.072906815 -0.12406262 -0.14634125 -0.1757415 -0.2189921 -0.13735263 -0.08397928 -0.055620346
-0.0214336 0.017894207 0.020410016 -0.14369053 -0.20399396 -0.18719058 -0.06751366 -0.122023106
-0.16707651 -0.17984253 -0.093012415 -0.20191321 -0.16531684 -0.11065463 -0.0009965481 0.074875295
0.109408565 0.04510365 -0.0044116653 -0.093757086 -0.04776354 0.06433097 -0.12093586 -0.038842652
0.08276111 0.16762307 -0.011832152 0.10929374 0.026429005 0.0762242 0.012687755 -0.027160527
0.020176936 -0.051003687 -0.11075465 -0.021459583 -0.107481904 -0.04101385 -0.045611754 -0.01411089
-0.023448752 0.11318838 -0.061585426 -0.011712423 0.0065988293 -0.059996117 -0.081742376 0.10626241
0.16743335 0.05097919 0.18665402 0.13748723 0.119568355 0.17617397 0.041116524 0.11708616
0.1329066 0.06569387 -0.037421595 0.119920634 0.04101673 0.09637019 0.04436732 0.17962453
0.12957217 0.12943181 0.11028242 0.03330885 -0.122593075 0.13551092 0.11198913 0.17073798
-0.037974276 -0.032606903 -0.09824922 0.123142354 0.054976903 0.11724796 -0.022343459 -0.042785726
0.12163634 0.075228564 -0.024204744 -0.040311974 -0.13934962 0.11523741 0.077093326 0.031924386
0.047073893 -0.12270894 0.04279832 0.035058696 -0.16774566 -0.22110002 -0.24889442 -0.020044867
00000000: e9b1 243e cdce 5e3e 944c 933e a2be 913c
00000010: 9897 a53d c06f a43e 9f8f 863e 7bfa 4d3e
00000020: 8626 4f3e ecbb d03d 8e8c 273e 2f70 553e
00000030: 61df 1e3e 1b37 093e dd33 2e3e c6a1 31bd
00000040: fc04 73bd 7726 11be 40a6 de3a da2a 5cbd
00000050: dc38 56be d837 94be e0f4 95be abaa 88be
00000060: 697a 53be 7c06 123d 558a 03be f835 d0bc
00000070: cb6e ebbb 5c1e aabd 66c0 31bc cf1f 0e3b
00000080: 4f05 f03d a5ac a73d e27e 763d ad02 293b
00000090: 477d 493e 0db9 673e e2c5 1b3e 9421 ee3d
000000a0: 50c7 0ebe 9237 4bbe 46e0 89bd 16ca 44be
000000b0: 4e97 19be aaf2 94be 0703 a7be 729a a3be
000000c0: 5a0a 92be ed51 41be 9432 803c 019e 0dbd
000000d0: 5dbe 1bbe 61f2 013c 2509 4dbe d736 a53d
000000e0: 2fa8 0bbd 5177 ad3d d077 40bd b9fc e63d
000000f0: a3ec e73d 804d 163e 565c 1c3e 026d b03d
00000100: c8d5 e43d 481b 373c ed23 723b bb0e 21bd
00000110: 0154 87bd 4470 6ebd c84c 9bbc a0d4 f4bb
00000120: 7766 0fbe 8e1d 10bd d4a3 72bb f50f 3a3e
00000130: 6869 383e cc6e 063e 25a5 c93d f4bc e9bd
00000140: a26d 503d abd2 403e 1b98 873d a138 733d
00000150: 4a8f 9f3d e0d9 033c 4e93 bd3b fa62 2a3e
00000160: 1d19 8b3b 2339 1fbc bfb3 b03d 738b 3f3c
00000170: 134c 963c bc66 da3c 3058 973d 286d e93d
00000180: dd24 303d a1f1 a83c e585 0f3d ba77 083e
00000190: 1848 6d3d fb34 d0bd e629 ecbd a096 84bd
000001a0: e3b0 91bd 90ea 8d3d dc8d 863c f654 47bd
000001b0: d7a5 7cbd 04c5 42bd 690b 673d 494b b13d
000001c0: 80ff 72ba c34e ac3b 7753 3b3d f411 46bd
000001d0: 3fb2 49bd aa73 b43d 0c18 bb3c 5813 05be
000001e0: 2a82 8f3c 6335 abbd 8470 fabc d939 5b3c
000001f0: 40d3 1e3d ae51 68bc 5d2c 863d 1a57 d5bc
00000200: ed7d 77bd b7f9 68bc 679f d13c 1a4f ef3d
00000210: c266 c53d bc20 fbbc cb38 febd 420b 673d
00000220: d042 883d 7d5b a23d dff7 f83d 09cd 973c
00000230: d5b7 22bd 28c4 e23d 822f 153e 9533 083e
00000240: 2ac8 c6bd 6e3b bcbc eadf fa3d fb7d 983d
00000250: 34f3 813d 3bec 15bd a287 943d 1544 d7bd
00000260: 2b50 95bd 8b14 febd 7bda 15be 94f5 33be
00000270: 773f 60be 2ba6 0cbe 54fd abbd 29d2 63bd
00000280: 8495 afbc df96 923c e832 a73c 9c23 13be
00000290: cbe3 50be e3ae 3fbe 9a44 8abd 40e7 f9bd
000002a0: 1b16 2bbe a428 38be 4b7d bebd 56c2 4ebe
000002b0: d148 29be e59e e2bd 9b9e 82ba 3858 993d
000002c0: 9911 e03d 9bbe 383d bb8f 90bb b703 c0bd
000002d0: b4a3 43bd f5bf 833d 38ad f7bd 7919 1fbd
000002e0: a87e a93d 62a5 2b3e a4db 41bc 65d5 df3d
000002f0: a481 d83c 6f1b 9c3d 4de0 4f3c c17f debc
00000300: 1a4a a53c 3ee9 50bd 55d3 e2bd 02cc afbc
00000310: 791f dcbd 24fe 27bd 64d3 3abd 5d31 67bc
00000320: 9917 c0bc 4fcf e73d 0041 7cbd 76e5 3fbc
00000330: fe3a d83b 7dbe 75bd 8c68 a7bd 1ba0 d93d
00000340: a673 2b3e 8ecf 503d 3b22 3f3e 74c9 0c3e
00000350: 41e0 f43d f366 343e cd69 283d deca ef3d
00000360: ab18 083e 828a 863d 6347 19bd f398 f53d
00000370: 2901 283d bc5d c53d 82ba 353d 7eef 373e
00000380: 91ae 043e c689 043e c0db e13d dc6e 083d
00000390: 1412 fbbd 60c3 0a3e 8f5a e53d f0d5 2e3e
000003a0: ea8a 1bbd d18e 05bd e336 c9bd 0f32 fc3d
000003b0: 762f 613d b31f f03d a109 b7bc 1640 2fbd
000003c0: 791c f93d 6f11 9a3d 0749 c6bc 2b1e 25bd
000003d0: abb1 0ebe 9701 ec3d 1be3 9d3d 25c3 023d
000003e0: 8ed0 403d d34e fbbd 4b4d 2f3d b599 0f3d
000003f0: 85c5 2bbe 0b68 62be 2ede 7ebe 2235 a4bc

conv1.bias f4 [6]
-0.21517724 0.6318747 0.43229273 -0.07361654 0.35598117 0.34593296
00000000: 6c57 5cbe 8ac2 213f 7955 dd3e 45c4 96bd
00000010: 2a43 b63e 201e b13e

conv2.weight f4 [16, 6, 5, 5]
0.009734953 0.15068707 0.08119669 0.029189631 0.11995991 0.10457927 0.18307671 0.18004587
0.064639196 0.017308531 0.12126728 0.040542144 0.039078213 0.16621046 0.20140694 0.06240968
0.050196342 0.09547904 0.19260702 0.14880134 0.025860732 0.06146175 0.19792584 -0.0018934055
0.06499253 -0.06820606 -0.07365556 -0.009948443 -0.03618294 -0.049353655 0.031944733 -0.028873404
-0.13912722 0.009333078 -0.09868219 0.12201631 -0.045092504 -0.09080021 0.040922407 -0.026649306
0.17763825 0.12782937 0.031791486 -0.0749359 -0.021255635 0.14581832 0.023401236 0.1267293
0.04462602 -0.029960202 0.029668177 0.08380868 -0.023481416 0.053276766 0.07284368 0.009796547
0.06940182 -0.003913555 0.039533455 0.083514415 0.04228281 -0.020251688 -0.06422945 0.09635808
0.11046437 -0.06869047 -0.041792914 0.10724439 0.036253717 0.0105314 0.027864618 0.01811525
0.112613924 0.027349439 0.09529732 -0.09479992 -0.08681565 -0.043907296 0.045064986 -0.010759348
-0.051997792 -0.07630069 -0.10466218 -0.023165246 -0.07400838 -0.009509682 -0.04553352 -0.070988245
-0.019376954 0.0035736635 -0.07273328 0.014529452 0.04051988 0.00992461 0.077408746 -0.025289308
0.002423592 0.027132338 0.027798163 -0.0383865 0.07092415 0.025920095 0.030647133 0.020214686
0.086349465 0.014946349 0.0151389185 0.03298883 -0.06733601 -0.02756687 0.022681292 0.049199905
0.029667763 0.044282056 0.007302449 0.017705416 -0.017216561 0.0013248366 0.013307562 0.014110916
0.060279883 0.09303307 -0.016459413 0.00032611043 -0.011933475 -0.024370924 -0.019551523 0.046746265
-0.047238786 0.011018414 0.030049833 0.052500263 -0.0036768026 -0.1090758 -0.027182449 0.008614841
-0.059191577 -0.13227062 -0.048074402 -0.039622493 -0.014057253 -0.049034573 0.037261218 -0.0010481698
0.0142638385 -0.10249528 -0.032137495 -0.036108375 0.0007648675 -0.040784225 -0.051510908 0.0073547214
-0.045846537 0.0019994152 -0.012631681 0.016919822 -0.00028773778 -0.08488269 0.004742902 -0.048573475
0.006147045 -0.056646246 -0.04375363 -0.06140187 0.0066149547 -0.023813924 -0.046111822 -0.024204036
-0.03721157 -0.05465312 -0.02592594 0.013010754 -0.06078973 -0.04906735 -0.048067007 0.062003534
0.016329914 0.0029004498 0.021049079 -0.09744934 0.055564478 0.01685526 -0.06408511 -0.07605845
-0.062151734 0.09300561 0.041926403 0.100277245 -0.02740621 -0.052180532 0.029372374 0.117362835
0.1188283 0.07226165 0.08076218 -0.029205022 0.05957632 -0.01830975 0.10242859 -0.021106135
-0.013760037 0.03832225 0.10059269 0.06530813 0.1426209 -0.028626414 -0.006962808 -0.023382694
0.12068561 0.12764761 0.110869765 0.1132655 0.089428216 0.027248187 0.09548776 0.053668603
-0.009162079 0.119614065 0.029202076 0.12449139 0.0055647297 0.050469846 0.10407627 0.018361071
-0.0029204797 0.011991073 0.02957359 0.080326915 0.07311597 -0.008348223 0.047063563 0.088155136
0.12931679 0.036109127 -0.012013505 0.038007814 -0.013254291 0.074085385 0.09142961 0.017478244
0.054454308 0.0024188228 0.041996345 0.074176244 0.010361475 0.12096952 0.112980135 0.0072927126
-0.0061969515 0.0036063315 0.18569165 0.15460715 0.13522623 0.17070805 0.08337098 0.110715844
00000000: 5a7f 1f3c b64d 1a3e 734a a63d 181f ef3c
00000010: 8bad f53d a82d d63d 7678 3b3e f25d 383e
00000020: 8e61 843d 9fca 8d3c fb5a f83d 850f 263d
00000030: 7a10 203d 1333 2a3e 9f3d 4e3e 4ba1 7f3d
00000040: ae9a 4d3d 848a c33d c63a 453e 615f 183e
00000050: e3d9 d33c 51bf 7b3d 12ad 4a3e 252c f8ba
00000060: ce1a 853d 9eaf 8bbd bad8 96bd cbfe 22bc
00000070: 9034 14bd 0f27 4abd 7bd8 023d eb87 ecbc
00000080: 5e77 0ebe c4e9 183c e319 cabd b0e3 f93d
00000090: ebb2 38bd 76f5 b9bd 419e 273d a54f dabc
000000a0: cde6 353e b4e5 023e ca37 023d fe77 99bd
000000b0: 4c20 aebc 6651 153e f3b3 bf3c 53c5 013e
000000c0: c6c9 363d 196f f5bc ad0a f33c e3a3 ab3d
000000d0: 195c c0bc bd38 5a3d 112f 953d b281 203c
000000e0: 8b22 8e3d 473d 80bb d5ed 213d 9b09 ab3d
000000f0: bd30 2d3d dee6 a5bc bb8a 83bd 6357 c53d
00000100: 253b e23d 97ad 8cbd 0c2f 2bbd f2a2 db3d
00000110: c77e 143d e58b 2c3c 5744 e43c 6f66 943c
00000120: 21a2 e63d ee0b e03c 3e2b c33d 7626 c2bd
00000130: 67cc b1bd 23d8 33bd 1096 383d fa47 30bc
00000140: a3fb 54bd 8943 9cbd 2059 d6bd 0bc5 bdbc
00000150: b591 97bd 7fce 1bbc 5b81 3abd 4962 91bd
00000160: 6bbc 9ebc 2034 6a3b 30f5 94bd f00c 6e3c
00000170: 2cf8 253d d59a 223c 7a88 9e3d 862b cfbc
00000180: 20d5 1e3b a344 de3c f9b8 e33c 2a3b 1dbd
00000190: ae40 913d 6156 d43c b20f fb3c 4599 a53c
000001a0: fdd7 b03d 88e1 743c 3a09 783c 4c1f 073d
000001b0: 76e7 89bd ebd3 e1bc 1ece b93c d785 493d
000001c0: cf09 f33c 1a61 353d 6249 ef3b f30a 913c
000001d0: bf09 8dbc 24a6 ad3a f607 5a3c 7931 673c
000001e0: 0ae8 763d 1f88 be3d e4d5 86bc cdf9 aa39
000001f0: 9f84 43bc 88a5 c7bc 842a a0bc 0379 3f3d
00000200: 757d 41bd 9486 343c 112b f63c 840a 573d
00000210: 83f6 70bb 2263 dfbd baad debc 4325 0d3c
00000220: de72 72bd f371 07be aae9 44bd 324b 22bd
00000230: 6450 66bc 7ad8 48bd 389f 183d be62 89ba
00000240: e0b2 693c 0ce9 d1bd 9ba2 03bd 60e6 13bd
00000250: 6481 483a 5c0d 27bd 1afd 52bd e0ff f03b
00000260: 94c9 3bbd 9f08 033b 1cf5 4ebc 709b 8a3c
00000270: 83db 96b9 fad6 adbd 586a 9b3b fbf4 46bd
00000280: 276d c93b e505 68bd 0237 33bd 8780 7bbd
00000290: 43c2 d83b 6b15 c3bc c0df 3cbd 8b47 c6bc
000002a0: 296b 18bd f3db 5fbd a362 d4bc 0f2b 553c
000002b0: a7fe 78bd d8fa 48bd e9e1 44bd 6bf7 7d3d
000002c0: 50c6 853c 7915 3e3b 1e6f ac3c 8593 c7bd
000002d0: 9497 633d 0b14 8a3c 0e3f 83bd 88c4 9bbd
000002e0: d192 7ebd ba79 be3d 05bb 2b3d 285e cd3d
000002f0: fd82 e0bc 41bb 55bd 559e f03c ed5b f03d
00000300: 405c f33d eafd 933d a466 a53d 5f3f efbc
00000310: 4d06 743d 54fe 95bc 15c6 d13d c6e6 acbc
00000320: c771 61bc cbf7 1c3d 8a03 ce3d 45c0 853d
00000330: 370b 123e f181 eabc 4428 e4bb 108d bfbc
00000340: 042a f73d 0eb6 023e b00f e33d bef7 e73d
00000350: 2426 b73d 9737 df3c 168f c33d 9cd3 5b3d
00000360: 8b1c 16bc 38f8 f43d 3139 ef3c 58f5 fe3d
00000370: 5658 b63b 78b9 4e3d f025 d53d f569 963c
00000380: 8565 3fbb 3576 443c 5044 f23c 7082 a43d
00000390: d3bd 953d fcc6 08bc b9c5 403d ae8a b43d
000003a0: 9f6b 043e 2ae7 133d 4bd4 44bc 15ae 1b3d
000003b0: 8728 59bc 14ba 973d 733f bb3d 892e 8f3c
000003c0: 7b0b 5f3d 1d85 1e3b 5c04 2c3d b7e9 973d
000003d0: 2dc3 293c debe f73d 2162 e73d b5f7 ee3b
000003e0: cc0f cbbb 3458 6c3b f425 3e3e 5651 1e3e
000003f0: bf78 0a3e 17ce 2e3e 68be aa3d fdbe e23d

conv2.bias f4 [16]
-0.061996374 -0.09727543 0.3915692 0.19402969 0.07608607 -0.019909045 -0.13861227 -0.26855174
0.036796324 0.016568359 -0.028730689 0.049320713 -0.1102811 0.27422738 0.024864048 -0.106075004
00000000: e9ef 7dbd 5738 c7bd c27b c83e b8af 463e
00000010: 03d3 9b3d 4b18 a3bc 60f0 0dbe 9d7f 89be
00000020: beb7 163d 5eba 873c 9f5c ebbc 8404 4a3d
00000030: 0fdb e1bd 8867 8c3e b0af cb3c da3d d9bd

fc1.weight f4 [120, 400]
-0.0046374737 0.01954263 -0.0041713994 0.013950892 -0.0007592493 -0.045516346 -0.03264484 -0.04903008
0.041268002 -0.033411056 0.06154072 0.01811143 0.0078619495 0.06856106 -0.023595508 0.05984134
0.056935623 0.054358754 0.048813336 0.042554997 -0.004140396 0.009116973 0.01811128 0.038612258
0.048485044 0.04314596 0.008330746 0.014987991 -0.040164687 0.017056419 0.037192274 -0.024763778
-0.034749337 -0.013339186 -0.03464267 0.021496655 0.026362117 -0.004773536 -0.047394317 0.0032166482
-0.01666418 0.007431432 -0.08146552 -0.032724783 -0.054119386 0.04506421 0.04860069 -0.020513047
-0.016806373 0.0358883 0.0025590828 -0.005050377 -0.014794517 -0.0074791308 0.021352265 0.0060799574
-0.0031432603 0.0050807614 0.016800933 -0.019991895 -0.0142427 -0.039072797 0.027295489 0.04126084
0.006127952 -0.027341697 0.05301232 0.029736096 0.019211506 0.018158015 0.023404837 0.045455143
-0.012170767 -0.06102228 0.016192736 -0.00255454 0.008992149 0.0074515087 0.0066913017 0.040303458
0.0019384346 -0.026231091 0.033599004 0.012124302 -0.014452194 -0.06060358 -0.030749595 0.05302005
0.017165305 2.7450398e-05 0.00055986614 -0.05160648 -0.011121493 0.04302024 -0.029668733 0.051512595
0.026098488 -0.0028604602 0.02522943 -0.03740812 0.013044403 -0.030528437 -0.010533776 0.00030535125
-0.06151438 0.053545125 0.000610558 -0.051692184 -0.046285667 0.034577582 0.0682389 -0.034499552
-0.018272765 -0.04274238 -0.044584688 0.0630261 0.0087846955 -0.0059441067 0.042907033 -0.009559245
0.06566613 0.018615566 -0.01247285 0.061803874 -0.016720714 -0.017271183 -0.014156555 0.028633764
-0.013228713 0.010831316 -0.017175183 0.009175962 0.04296045 -0.044827364 0.016024072 -0.010422889
0.031066108 0.015890948 0.0038353375 0.034566984 -0.0028770124 0.04299587 -0.009718492 0.045538932
0.0145986285 -0.039693348 -0.02610254 -0.007278221 0.001984567 -0.017398607 0.021078741 0.031230655
0.05483087 0.00018193676 -0.02348006 0.051321395 0.018038003 -0.03972698 0.017922997 0.039792724
-0.028714882 -0.0031530182 0.010764582 -0.007442077 0.007849061 0.0046093697 0.03742904 0.023164665
0.05199894 -0.030695032 -0.02593124 -0.016620966 -0.03445693 0.0012494979 0.023927217 0.0023481927
0.028125474 0.0002041329 0.0148864705 0.020093493 -0.0369137 -0.025768625 0.02331134 -0.059445653
-0.023527525 -0.017415363 -0.031190481 0.019040791 -0.027081326 0.04155958 -0.0076928283 0.036360245
0.019766962 0.02800611 0.02378631 0.019187743 -0.028472047 0.002812946 -0.007955244 -0.03553037
0.04293536 -0.03624902 0.016754948 -0.038956717 0.030805176 0.040504374 0.03351962 -0.011087434
0.022009537 -0.024897879 0.018607799 -0.0124176955 0.026693955 -0.027620172 -0.03745723 0.07869401
0.0038231756 0.00018957816 -0.028788932 -0.02540469 0.06620897 -0.0021716917 0.012873245 -0.034020625
-0.019469457 -0.011255438 -0.044966187 0.038448773 -0.016748922 -0.018461108 0.009346385 0.02103275
-0.004601903 -0.000105284766 0.013899785 -0.057955816 0.01438407 0.029161043 -0.03594996 -0.025984582
0.014486245 -0.049996212 -0.028926648 -0.0021195447 0.010185692 -0.012244433 -0.024201771 0.02267432
0.0075139035 -0.0016773985 0.0055367816 -0.04417619 -0.02780938 -0.052988324 -0.05228747 -0.013705771
00000000: f3f5 97bb de17 a03c 3cb0 88bb 4892 643c
00000010: 5c08 47ba 596f 3abd 99b6 05bd c4d3 48bd
00000020: a308 293d 08da 08bd 1f12 7c3d 6c5e 943c
00000030: 68cf 003c be69 8c3d 5e4b c1bc 311c 753d
00000040: 5435 693d 49a7 5e3d 7ef0 473d 264e 2e3d
00000050: 29ac 87bb 5b5f 153c 1b5e 943c e327 1e3d
00000060: 4198 463d d1b9 303d ae7d 083c 3190 753c
00000070: ba83 24bd e7b9 8b3c ed56 183d 68dd cabc
00000080: 5255 0ebd 9a8c 5abc 79e5 0dbd c119 b03c
00000090: 5ef5 d73c 536b 9cbb 8b20 42bd 67ce 523b
000000a0: 5283 88bc 5f83 f33b 65d7 a6bd 6c0a 06bd
000000b0: 4aac 5dbd 4095 383d 8411 473d fa0a a8bc
000000c0: 85ad 89bc 9cff 123d 49b6 273b a27d a5bb
000000d0: b464 72bc 7f13 f5bb f2ea ae3c 613a c73b
000000e0: 28ff 4dbb 847c a63b 1ca2 893c 0bc6 a3bc
000000f0: 375a 69bc cc0a 20bd ca9a df3c 2001 293d
00000100: fdcc c83b b2fb dfbc 7223 593d 1d99 f33c
00000110: 7361 9d3c 1ec0 943c 80bb bf3c 2c2f 3a3d
00000120: e667 47bc 80f2 79bd a1a6 843c 126a 27bb
00000130: ce53 133c c92b f43b b542 db3b 3d15 253d
00000140: 1213 fe3a 96e2 d6bc 1c9f 093d 02a5 463c
00000150: e5c8 6cbc 763b 78bd 93e6 fbbc 8d2b 593d
00000160: 419e 8c3c 4845 e637 fbc3 123a 5161 53bd
00000170: ec36 36bc fe35 303d d80b f3bc dffe 523d
00000180: 7fcc d53c 8f76 3bbb f3ad ce3c 4239 19bd
00000190: 31b8 553c c616 fabc dc95 2cbc 8d17 a039
000001a0: 81f6 7bbd 2252 5b3d db0d 203a 2fbb 53bd
000001b0: 0a96 3dbd 39a1 0d3d d6c0 8b3d 674f 0dbd
000001c0: c4b0 95bc a212 2fbd 6f9e 36bd d413 813d
000001d0: afed 0f3c c8c6 c2bb 49bf 2f3d 619e 1cbc
000001e0: f77b 863d ac7f 983c ed5a 4cbc 0f26 7d3d
000001f0: e1f9 88bc 4c7c 8dbc e5f0 67bc 5b91 ea3c
00000200: 3ebd 58bc d575 313c f8b2 8cbc c656 163c
00000210: 4cf7 2f3d e69c 37bd ea44 833c c4c4 2abc
00000220: 5a7e fe3c bc2d 823c 495a 7b3b 1c96 0d3d
00000230: 428c 3cbb 701c 303d 4f3a 1fbc 0887 3a3d
00000240: 162f 6f3c 7e95 22bd fed4 d5bc 257e eebb
00000250: 820f 023b 8687 8ebc 53ad ac3c 6ed7 ff3c
00000260: 5696 603d 47c6 3e39 4159 c0bc 6236 523d
00000270: 6fc4 933c c2b8 22bd 40d3 923c b2fd 223d
00000280: 793b ebbc dea2 4ebb ee5d 303c abdc f3bb
00000290: 5999 003c 320a 973b 314f 193d d3c3 bd3c
000002a0: d7fc 543d 2674 fbbc c06d d4bc b128 88bc
000002b0: b622 0dbd 31c6 a33a 0303 c43c 23e4 193b
000002c0: 6567 e63c 820c 5639 62e6 733c 1c9b a43c
000002d0: d232 17bd b918 d3bc 6cf7 be3c 497d 73bd
000002e0: ccbc c0bc aaaa 8ebc 2e83 ffbc 6ffb 9b3c
000002f0: a8d9 ddbc 613a 2a3d 1f14 fcbb 7bee 143d
00000300: 53ee a13c 126d e53c 82db c23c 9d2f 9d3c
00000310: 363e e9bc 6759 383b b656 02bc 4b88 11bd
00000320: fddc 2f3d da79 14bd ac41 893c 1491 1fbd
00000330: 235b fc3c eae7 253d de4b 093d 12a8 35bc
00000340: 584d b43c a3f6 cbbc 626f 983c 9773 4bbc
00000350: 48ad da3c b343 e2bc c16c 19bd 532a a13d
00000360: 3e8e 7a3b 80c9 4639 c4d6 ebbc 7f1d d0bc
00000370: 9298 873d f152 0ebb 4eea 523c 3659 0bbd
00000380: 697e 9fbc bb68 38bc 772e 38bd 767c 1d3d
00000390: 0935 89bc c03b 97bc 9421 193c e04c ac3c
000003a0: 8fcb 96bb 54cc dcb8 ecbb 633c 1463 6dbd
000003b0: 2aab 6b3c 24e3 ee3c 4440 13bd 9edd d4bc
000003c0: b757 6d3c d4c8 4cbd 94f7 ecbc 0fe8 0abb
000003d0: e4e1 263c e09c 48bc cb42 c6bc 7fbf b93c
000003e0: 3137 f63b 27dc dbba e46d b53b 18f2 34bd
000003f0: 7fd0 e3bc 490a 59bd 632b 56bd 2c8e 60bc

fc1.bias f4 [120]
0.024514748 -0.04810956 -0.03694092 -0.00058264774 -0.022380464 0.098688126 -0.0057867575 -0.050096698
-0.01595215 -0.031878 0.0011292255 -0.019324046 -0.057731915 -0.027820962 0.023107832 -0.0079487
-0.08378464 0.0019026314 -0.10324846 -0.04389716 -0.0020408928 0.02390859 -0.028974395 0.048018392
-0.039358433 -0.012111449 0.011461609 -0.038150586 -0.010876321 0.076295026 -0.027745211 -0.011873482
-0.005984066 -0.056194186 -0.017720658 -0.028064705 0.028427748 -0.0011457683 0.047468506 -0.006310577
-0.015586783 -0.0125079835 -0.05839328 -0.033199847 0.022323614 -0.0037028508 -0.046005685 0.05783831
-0.022150962 0.023669694 -0.012941304 -0.04765914 -0.023537999 0.031675708 -0.013903266 -0.04421086
-0.02876465 0.054677967 0.008933626 0.06347264 0.063233994 0.013412709 0.023445949 -0.03403492
0.036957495 0.04631489 -0.032028172 -0.01957789 0.08108384 0.1152036 -0.01699495 0.0075031263
-0.043230187 0.043536656 -0.013818379 -0.047787014 -0.024921749 0.08896109 0.094455875 -0.05020094
-0.021696178 0.019020228 0.03263432 -0.042527985 0.0025492534 0.1295082 -0.004930749 0.04394866
0.038979203 0.038928725 0.0102325445 0.09442453 -0.037187476 0.01843963 0.023505354 -0.035787895
-0.025340289 -0.049450062 -0.056859445 0.08145204 0.011222856 -0.014887909 -0.026983231 0.032793254
0.025106993 -0.067430794 0.07167826 -0.014514303 0.07023578 -0.033883903 0.019240573 -0.03149421
-0.003936474 0.02077109 -0.10118127 0.05630208 0.0124964295 -0.047458492 0.025152663 -0.09010247
00000000: 27d3 c83c 880e 45bd 5d4f 17bd d4bc 18ba
00000010: 3c57 b7bc 001d ca3d d79e bdbb 3232 4dbd
00000020: 15ae 82bc 8192 02bd 8502 943a 764d 9ebc
00000030: 4d78 6cbd c9e8 e3bc a34c bd3c 443b 02bc
00000040: 4897 abbd b761 f93a ee73 d3bd 82cd 33bd
00000050: 80c0 05bb f3db c33c b65b edbc efae 443d
00000060: 4f36 21bd 196f 46bc 79c9 3b3c ca43 1cbd
00000070: 9932 32bc 9140 9c3d ed49 e3bc fe88 42bc
00000080: fc15 c4bb e02b 66bd ea2a 91bc f4e7 e5bc
00000090: 4fe1 e83c 9b2d 96ba 566e 423d f5c8 cebb
000000a0: b55f 7fbc 49ee 4cbc cb2d 6fbd 90fc 07bd
000000b0: 03e0 b63c 87ab 72bb 7570 3cbd dde7 6c3d
000000c0: ef75 b5bc f2e6 c13c c307 54bc 3b36 43bd
000000d0: c3d2 c0bc 63be 013d 86ca 63bc 7216 35bd
000000e0: d8a3 ebbc 01f6 5f3d 585e 123c f2fd 813d
000000f0: d380 813d fbc0 5b3c b811 c03c 3368 0bbd
00000100: be60 173d afb4 3d3d f92f 03bd d061 a0bc
00000110: 490f a63d ddef eb3d fe38 8bbc c9dc f53b
00000120: 2312 31bd 7e53 323d 7b66 62bc 51bc 43bd
00000130: b228 ccbc 3b31 b63d 1572 c13d 809f 4dbd
00000140: 2fbc b1bc 4fd0 9b3c 91ab 053d d331 2ebd
00000150: 6011 273b cc9d 043e 1f92 a1bb 8303 343d
00000160: a8a8 1f3d ba73 1f3d 67a6 273c a661 c13d
00000170: e551 18bd b50e 973c 4d8e c03c 5496 12bd
00000180: 7096 cfbc 268c 4abd 73e5 68bd 54d0 a63d
00000190: 12e0 373c 6bec 73bc f00b ddbc 3852 063d
000001a0: 2ead cd3c 2819 8abd 0dcc 923d 66cd 6dbc
000001b0: c7d7 8f3d d9c9 0abd 689e 9d3c 1300 01bd
000001c0: 8afd 80bb 2228 aa3c 2038 cfbd 039d 663d
000001d0: d3bd 4c3c d663 42bd f50c ce3c a587 b8bd

fc2.weight f4 [84, 120]
-0.03998517 0.063172676 -0.039361726 0.0058292435 0.121329494 -0.040789355 0.069726065 -0.04422336
0.06588991 -0.06909852 0.0028475455 0.030436736 -0.03242658 -0.07226683 -0.03506266 0.0057626585
0.08964982 -0.09550574 0.07645025 -0.049213447 -0.02159766 -0.033732116 -0.028361335 -0.06601651
0.05163106 0.10809369 0.06842207 -0.036148287 0.06673099 -0.045507073 0.041872226 0.080665685
0.011405297 0.081639096 -0.07109169 -0.06527324 0.03532405 0.008931772 0.003062243 0.056415904
-0.06278036 0.02402518 0.04056108 0.06644337 -0.01563795 -0.07125834 0.008935347 0.06716628
0.079040855 0.037827533 -0.048136145 -0.05931313 0.058278892 0.024555393 -0.050338343 -0.020658486
-0.019664586 -0.08806659 0.10619961 -0.09790287 0.02004451 0.12976743 -0.0032314393 -0.017644059
0.012650707 0.09172882 0.0663772 -0.11289647 0.057880025 0.028962284 -0.03326131 0.02375907
0.07839299 0.020402705 -0.032770418 0.04695843 0.091334715 -0.06454973 0.028278435 -0.064641915
0.055407245 0.043183953 0.035373732 0.008291216 -0.016988771 -0.06877673 -0.039794292 0.06598481
-0.0070328866 0.06432382 -0.071286894 -0.039732803 0.028070096 0.016723027 0.07307141 -0.029532652
0.021412997 -0.019311242 0.054880492 -0.09950766 0.004161867 0.028412228 0.0015203941 -0.0712024
0.025075372 0.07728467 -0.059274085 0.05080265 -0.028795943 -0.011404149 0.07695107 0.03657881
0.056469623 0.116324335 0.076057315 -0.091824204 -0.055030026 -0.0667592 0.08570688 0.08152944
0.054796174 0.031430457 -0.027361503 -0.0481986 -0.07627864 0.062441703 -0.012716027 -0.0061995788
0.018874114 -0.06598576 -0.03778224 0.021709708 0.05450976 -0.055611942 -0.01890169 0.019432055
0.0037356303 0.09974374 -0.023910962 -0.038020983 -0.02045279 -0.02683213 0.019816704 -0.026642708
-0.09015907 0.05460877 0.056359477 -0.08028719 -0.0206644 -0.010363974 0.06688185 -0.042565167
0.08572632 0.01023056 0.03701166 -0.06482381 0.041909724 -0.07147335 -0.056604773 -0.006661419
-0.027676139 0.07246226 0.003915739 -0.0070485743 0.017275041 -0.010496572 -0.064645745 -0.05473196
-0.060178652 -0.022275854 -0.079696886 -0.03745406 0.006381894 -0.007080979 -0.066976935 0.03805187
-0.013228257 -0.008081159 -0.030252121 0.01388957 -0.073338166 -0.09318478 -0.063955404 -0.0026564018
-0.05603777 -0.040412035 -0.034068365 0.0685566 -0.06295256 0.07602259 -0.074899964 -0.051064163
-0.07326359 0.08667722 0.07609613 -0.06593817 -0.038742162 -0.03560349 0.048601024 0.08705498
-0.054275304 0.025126733 -0.077271685 -0.013454247 0.043031663 0.068976395 -0.05317611 0.008556104
0.041064568 -0.01282308 -0.016054431 0.07856425 0.008199304 0.064154044 -0.076139554 0.043603674
-0.07171944 -0.0022361467 -0.013986798 0.021168523 -0.08897976 -0.054774303 -0.01992877 0.023377528
0.007045088 0.02632606 0.029958664 -0.02355609 -0.07985601 0.02673696 0.0038109585 -0.05968958
-0.0082783615 0.0022246602 0.009164531 -0.036978044 0.05870441 -0.07543007 0.04008473 -0.038991414
-0.014560581 -0.020322468 0.03070364 -0.069362506 -0.022949284 -0.0077929366 0.057133883 -0.040873405
-0.01704496 0.05388753 0.09861564 -0.057356633 -0.055451907 0.08761192 0.06505042 -0.038260255
00000000: 7dc7 23bd ad60 813d c339 21bd 3d03 bf3b
00000010: 997b f83d bd12 27bd 8acc 8e3d 8e23 35bd
00000020: 4af1 863d 8683 8dbd e39d 3a3b 7656 f93c
00000030: bcd1 04bd a200 94bd dd9d 0fbd afd4 bc3b
00000040: 539a b73d 8398 c3bd f391 9c3d 0a94 49bd
00000050: 93ed b0bc b02a 0abd 0856 e8bc aa33 87bd
00000060: 177b 533d 3960 dd3d df20 8c3d 3a10 14bd
00000070: 42aa 883d a065 3abd 3682 2b3d 0d34 a53d
00000080: 48dd 3a3c 6632 a73d 8598 91bd faad 85bd
00000090: f3af 103d 9156 123c eaaf 483b 5d14 673d
000000a0: fd92 80bd 74d0 c43c 6023 263d 7613 883d
000000b0: 281b 80bc e4ef 91bd 9065 123c 798e 893d
000000c0: 2ce0 a13d 0bf1 1a3d 682a 45bd 53f2 72bd
000000d0: d9b5 6e3d 6428 c93c 942f 4ebd fc3b a9bc
000000e0: a017 a1bc 425c b4bd 2e7f d93d 4d81 c8bd
000000f0: 6234 a43c c1e1 043e 8ec6 53bb 468a 90bc
00000100: e944 4f3c 52dc bb3d c5f0 873d 4436 e7bd
00000110: 9b13 6d3d 5042 ed3c 033d 08bd 62a2 c23c
00000120: 818c a03d 9323 a73c 463a 06bd 7c57 403d
00000130: b20d bb3d a632 84bd 2da8 e73c fb62 84bd
00000140: b5f2 623d a8e1 303d 0ce4 103d e1d7 073c
00000150: 092c 8bbc d0da 8cbd 57ff 22bd 0b23 873d
00000160: 2174 e6bb 35bc 833d ddfe 91bd ddbe 22bd
00000170: 42f3 e53c bbfe 883c 77a6 953d 76ee f1bc
00000180: 4f6a af3c 9c32 9ebc 5eca 603d acca cbbd
00000190: 4560 883b c3c0 e83c f647 c73a 90d2 91bd
000001a0: de6a cd3c 6d47 9e3d 62c9 72bd 7116 503d
000001b0: 78e5 ebbc 78d8 3abc 8698 9d3d aad3 153d
000001c0: b14c 673d 743b ee3d f0c3 9b3d 540e bcbd
000001d0: 2a67 61bd 0cb9 88bd 1787 af3d e8f8 a63d
000001e0: f471 603d 39bd 003d 3b25 e0bc e56b 45bd
000001f0: fa37 9cbd dfc2 7f3d e256 50bc d625 cbbb
00000200: e39d 9a3c 8b23 87bd 8dc1 1abd 8fd8 b13c
00000210: a045 5f3d 59c9 63bd b8d7 9abc f92f 9f3c
00000220: 7ad1 743b 7246 cc3d ece0 c3bc e4bb 1bbd
00000230: 9c8c a7bc 0ecf dbbc a456 a23c cf41 dabc
00000240: 52a5 b8bd 72ad 5f3d 32d9 663d 9c6d a4bd
00000250: 6348 a9bc a8cd 29bc 5af9 883d d058 2ebd
00000260: 4891 af3d 149e 273c 8a99 173d 58c2 84bd
00000270: 88a9 2b3d 9f60 92bd 68da 67bd 0848 dabb
00000280: 12b9 e2bc 1867 943d 994f 803b baf7 e6bb
00000290: 6384 8d3c d0f9 2bbc fd64 84bd 9f2e 60bd
000002a0: e47d 76bd da7b b6bc 1f38 a3bd 6e69 19bd
000002b0: 351f d13b 8f07 e8bb 342b 89bd 47dc 1b3d
000002c0: 55bb 58bc d666 04bc 4cd3 f7bc 1491 633c
000002d0: 5232 96bd a9d7 bebd 0dfb 82bd 0717 2ebb
000002e0: dc87 65bd 1787 25bd 458b 0bbd 6767 8c3d
000002f0: 46ed 80bd bbb1 9b3d 2765 99bd a828 51bd
00000300: 390b 96bd d483 b13d 4ad8 9b3d 970a 87bd
00000310: 1ab0 1ebd f7d4 11bd de11 473d e249 b23d
00000320: c84f 5ebd 94d6 cd3c 9e40 9ebd 346f 5cbc
00000330: f841 303d 7f43 8d3d 31cf 59bd e72e 0c3c
00000340: 5233 283d e517 52bc 9584 83bc 4be6 a03d
00000350: 6056 063c 3263 833d 0eef 9bbd c499 323d
00000360: a4e1 92bd 518c 12bb e228 65bc 9c69 ad3c
00000370: 053b b6bd 055b 60bd a941 a3bc 3b82 bf3c
00000380: 7bda e63b c0a9 d73c df6b f53c b4f8 c0bc
00000390: 8c8b a3bd 7807 db3c 46c1 793b 107d 74bd
000003a0: f7a1 07bc 9bcb 113b d426 163c 4a76 17bd
000003b0: 0974 703d 157b 9abd e32f 243d 76b5 1fbd
000003c0: 818f 6ebc 4e7b a6bc 3386 fb3c ee0d 8ebd
000003d0: 2300 bcbc e45b ffbb 3805 6a3d df6a 27bd
000003e0: dfa1 8bbc 2cb9 5c3d fff6 c93d caee 6abd
000003f0: 8a21 63bd e16d b33d 2839 853d c9b6 1cbd

fc2.bias f4 [84]
-0.054214988 0.06605502 0.15898034 -0.027683528 -0.08898136 -0.059962936 -0.14007053 0.01063729
0.025380408 0.012716996 -0.019244084 0.076679066 0.12525281 0.0123379305 -0.00070680503 0.020378187
-0.07612317 -0.027858593 0.004287437 -0.058671184 0.037363146 0.1141595 -0.0053377966 -0.014716603
-0.05196081 0.101135194 -0.005206045 -0.04809311 -0.05085723 0.09347463 0.27103895 -0.11074676
-0.12446327 0.007386069 -0.067533806 0.07767884 -0.007192622 -0.015896022 0.04760941 -0.07809907
-0.009700289 -0.060497403 -0.0016031695 -0.02921763 0.039291948 -0.0948956 0.068857335 -0.009429019
-0.087660834 0.06507011 0.22067918 0.15638617 0.065486856 0.00567369 -0.10167495 0.03390863
-0.02751588 -0.0420244 -0.028958851 0.19030374 0.13261208 0.29693702 0.022140311 -0.003866812
-0.12468293 -0.005105415 0.21144365 0.020173533 0.006065701 -0.028964082 0.06089061 0.077810384
0.29253328 -0.034255017 0.133331 -0.086041056 -0.077000685 -0.011256451 0.0031451911 0.03373371
0.105989836 0.03246959 0.008984788 -0.051570706
00000000: 8910 5ebd db47 873d becb 223e 91c8 e2bc
00000010: dc3b b6bd b29b 75bd a66e 0fbe 0748 2e3c
00000020: 93ea cf3c f25a 503c c5a5 9dbc ea09 9d3d
00000030: 4642 003e 0825 4a3c e248 39ba 28f0 a63c
00000040: 77e6 9bbd b437 e4bc a17d 8c3b 3251 70bd
00000050: 190a 193d 75cc e93d afe8 aebb e81d 71bc
00000060: dcd4 54bd f81f cf3d 7997 aabb 48fd 44bd
00000070: ac4f 50bd a06f bf3d 9ec5 8a3e 33cf e2bd
00000080: 99e6 febd d606 f23b 2a4f 8abd 1516 9f3d
00000090: 16b0 ebbb 6038 82bc 1602 433d 68f2 9fbd
000000a0: f6ed 1ebc 20cc 77bd 7121 d2ba d059 efbc
000000b0: 98f0 203d a058 c2bd 1305 8d3d 2c7c 1abc
000000c0: 8687 b3bd 7a43 853d b9f9 613e b223 203e
000000d0: f91d 863d 5cea b93b f53a d0bd c7e3 0a3d
000000e0: fc68 e1bc c721 2cbd 1d3b edbc fcde 423e
000000f0: 76cb 073e 2108 983e 995f b53c 576a 7dbb
00000100: c459 ffbd 534b a7bb af84 583e f742 a53c
00000110: cac2 c63b 1546 edbc 6f68 793d 0d5b 9f3d
00000120: ecc6 953e fd4e 0cbd ec87 083e 4b36 b0bd
00000130: 89b2 9dbd fa6c 38bc 8d1f 4e3b 5c2c 0a3d
00000140: 3311 d93d d5fe 043d ef34 133c ce3b 53bd

fc3.weight f4 [10, 84]
-0.06577064 0.07188591 0.0706625 0.20829828 -0.0836378 0.17540982 0.019516652 0.05033116
0.03183312 -0.031274814 0.10673459 0.07869889 0.009177822 0.09894391 0.1003183 -0.11055401
-0.18995275 -0.08032963 -0.007507904 0.022780513 0.12530465 0.09236275 0.058532245 -0.057454314
0.05882456 0.11452843 -0.18785013 0.085396945 -0.0033603173 -0.08002663 -0.13447334 -0.11472737
-0.005979675 -0.082975104 0.07549897 0.09118808 0.21275823 0.08120078 -0.11823886 0.00760075
-0.10701024 -0.16268912 0.100211546 -0.0040103374 -0.10178802 0.08922065 -0.05266533 0.07692251
-0.07429058 0.14023621 -0.09881657 0.12605278 -0.0010118008 -0.047205795 0.13592035 -0.14246427
0.054676 -0.07257035 0.021415487 -0.16690412 0.09581053 -0.1790189 -0.0010604648 0.17639333
0.045547962 -0.11178915 -0.18505716 0.06391774 0.1882258 -0.024600565 0.04447028 0.07832764
-0.15017712 0.10880643 -0.06807668 0.049869232 0.14367108 -0.09929878 -0.0020502156 0.04052434
-0.09291156 0.036508836 -0.01089786 0.035874404 0.1370854 -0.09219163 -0.130313 0.24237385
-0.0011662954 0.12596072 -0.071166866 -0.10428625 0.24803086 0.021364357 0.22578071 0.08329839
-0.111562826 0.0521214 -0.27623975 -0.12813929 0.109934874 -0.08761169 -0.051630396 -0.08324017
0.023865968 -0.13657056 0.04387441 -0.068448335 0.061653256 0.101019524 0.12915969 0.12875748
-0.08303238 0.13159926 -0.03168915 0.11693082 -0.002460434 -0.048814155 -0.007307724 -0.03987973
-0.07652975 0.16016427 -0.054294657 -0.061374377 0.0064050076 0.18130012 -0.086835265 -0.115302615
-0.08262917 0.06245156 0.057997122 0.17208236 -0.10979002 -0.17108344 -0.009025772 0.056589056
-0.13968916 -0.136299 -0.12801085 -0.009479263 -0.09258276 0.033988178 -0.08452362 0.15982464
-0.11410089 -0.21836194 0.15680692 -0.026974298 0.10395486 -0.06118767 0.07005645 -0.095490366
-0.049765076 -0.20871367 0.12997603 0.026564093 -0.23384748 -0.07795368 -0.08349732 -0.011391496
-0.15052366 -0.07249294 0.13198052 -0.11055156 0.08025384 -0.08202035 -0.25023443 0.024896272
-0.028005868 0.020124927 0.08805981 0.12715703 0.089273535 -0.055632226 0.09469034 0.06534307
-0.085841686 0.00533021 0.0024647638 0.020857856 -0.038228244 -0.063519076 0.17890908 -0.11740708
-0.113765925 0.042779908 0.08794708 0.0071420395 -0.034982093 0.1809388 0.11881758 0.024077037
-0.059482418 0.0564602 0.062410757 -0.22526282 0.105482765 -0.041070417 0.03344534 -0.1154484
-0.19401188 0.14214627 0.18569073 0.045621872 -0.021697503 -0.0066235154 0.11813431 -0.16816865
-0.063723706 -0.020524815 0.09528198 0.075397424 -0.057074163 0.0512125 -0.18165797 -0.031490933
-0.100789525 0.1116008 0.04782319 -0.0895182 -0.09507348 -0.06785006 -0.07655784 -0.05943427
0.11811551 -0.00835444 -0.12238422 0.13126093 0.24294733 0.10847357 -0.11160212 0.027817493
-0.2491824 -0.06574053 0.11161531 -0.017968694 0.016364781 -0.01787133 0.12764846 -0.1278431
0.17529188 -0.079112716 0.16124551 0.0017223724 0.09832445 0.074212484 -0.03302826 0.08251829
-0.06252956 0.053722326 -0.1541945 -0.0075727524 -0.06124892 -0.036192026 -0.024213025 -0.16274728
00000000: c2b2 86bd ec38 933d 80b7 903d 254c 553e
00000010: 4b4a abbd a29e 333e 63e1 9f3c 0c28 4e3d
00000020: 7263 023d 051a 00bd aa97 da3d e22c a13d
00000030: 935e 163c 1ba3 ca3d ae73 cd3d 246a e2bd
00000040: f982 42be dc83 a4bd dd04 f6bb 339e ba3c
00000050: dd4f 003e ae28 bd3d 82bf 6f3d 3755 6bbd
00000060: 06f2 703d e28d ea3d c95b 40be 98e4 ae3d
00000070: c538 5cbb 00e5 a3bd 61b3 09be 2ff6 eabd
00000080: 26f1 c3bb daee a9bd 349f 9a3d d1c0 ba3d
00000090: 4bdd 593e 984c a63d 3727 f2bd b60f f93b
000000a0: 2f28 dbbd fa97 26be b63b cd3d 2669 83bb
000000b0: 3d76 d0bd 51b9 b63d 9ab7 57bd 8d89 9d3d
000000c0: a925 98bd 159a 0f3e 5860 cabd fb13 013e
000000d0: 679e 84ba dd5a 41bd b42e 0b3e 27e2 11be
000000e0: f1f3 5f3d c39f 94bd 886f af3c eae8 2abe
000000f0: 5038 c43d bb50 37be 4bff 8aba 74a0 343e
00000100: 8090 3a3d b6f1 e4bd a07f 3dbe 4ee7 823d
00000110: 44be 403e 2087 c9bc 7826 363d 3e6a a03d
00000120: 08c8 19be e8d5 de3d c96b 8bbd ae43 4c3d
00000130: 831e 133e 295d cbbd e95c 06bb dafc 253d
00000140: 6a48 bebd 4a8a 153d f08c 32bc 0af1 123d
00000150: 1d60 0c3e f7ce bcbd c570 05be da30 783e
00000160: 61de 98ba d9fb 003e efbf 91bd 0894 d5bd
00000170: cdfb 7d3e 4e04 af3c 0f33 673e 5998 aa3d
00000180: 0d7b e4bd 407d 553d 4c6f 8dbe f236 03be
00000190: 8925 e13d c26d b3bd 657a 53bd d279 aabd
000001a0: 9082 c33c 27d9 0bbe a7b5 333d a42e 8cbd
000001b0: 2088 7c3d 53e3 ce3d 7042 043e 00d9 033e
000001c0: e10c aabd f5c1 063e 7bcc 01bd 6d79 ef3d
000001d0: 3c3f 21bb 5af1 47bd a275 efbb ee58 23bd
000001e0: a1bb 9cbd 1a02 243e 1364 5ebd b363 7bbd
000001f0: 19e1 d13b bda6 393e b0d6 b1bd c723 ecbd
00000200: 7b39 a9bd 35cd 7f3d 648e 6d3d 5c36 303e
00000210: 97d9 e0bd 7f30 2fbe d5e0 13bc edc9 673d
00000220: ad0a 0fbe f791 0bbe 4715 03be e94e 1bbc
00000230: 089c bdbd 3037 0b3d b81a adbd 12a9 233e
00000240: baad e9bd 469a 5fbe fe91 203e 34f9 dcbc
00000250: 49e6 d43d ec9f 7abd c279 8f3d 7490 c3bd
00000260: 77d6 4bbd 09b9 55be 7018 053e f19c d93c
00000270: b775 6fbe 2ea6 9fbd a500 abbd 66a3 3abc
00000280: e022 1abe 2e77 94bd e725 073e db68 e2bd
00000290: 205c a43d 49fa a7bd ba1e 80be 44f3 cb3c
000002a0: 906c e5bc 08dd a43c b458 b43d 7435 023e
000002b0: 0bd5 b63d 9ede 63bd 02ed c13d 96d2 853d
000002c0: c4cd afbd 0ba9 ae3b e087 213b 18de aa3c
000002d0: 3895 1cbd 4a16 82bd f133 373e 2073 f0bd
000002e0: 1cfe e8bd fc39 2f3d 991d b43d c507 ea3b
000002f0: 6249 0fbd 0548 393e a256 f33d 353d c53c
00000300: d6a3 73bd d042 673d 6ca2 7f3d 4cab 66be
00000310: 5907 d83d 7439 28bd fbfd 083d 3670 ecbd
00000320: 0dab 46be cb8e 113e b625 3e3e 00de 3a3d
00000330: f6be b1bc 130a d9bb 67f0 f13d 6734 2cbe
00000340: 9381 82bd a823 a8bc 3323 c33d f769 9a3d
00000350: 99c6 69bd 33c4 513d 8c04 3abe a3fc 00bd
00000360: bd6a cebd f68e e43d 40e2 433d 5155 b7bd
00000370: e2b5 c2bd f9f4 8abd 5bca 9cbd 5971 73bd
00000380: 8be6 f13d 10e1 08bc 94a4 fabd 4469 063e
00000390: 2fc7 783e 6427 de3d a78f e4bd 83e1 e33c
000003a0: ac29 7fbe f9a2 86bd 9196 e43d 1533 93bc
000003b0: 6f0f 863c e566 92bc 47b6 023e 4de9 02be
000003c0: b77f 333e d905 a2bd 8b1d 253e 3ac1 e13a
000003d0: 545e c93d b7fc 973d a448 07bd 59ff a83d
000003e0: 7f0f 80bd f10b 5c3d 2ae5 1dbe da24 f8bb
000003f0: 26e0 7abd 173e 14bd 655a c6bc 39a7 26be

fc3.bias f4 [10]
-0.31660718 -0.20158073 0.2789184 0.008902055 0.4294658 -0.15642902 0.39410102 -0.080816634
-0.13742356 -0.20684567
00000000: 561a a2be 2e6b 4ebe 64ce 8e3e edd9 113c
00000010: f1e2 db3e ee2e 20be 9cc7 c93e 3183 a5bd
00000020: c3b8 0cbe 5acf 53be
